checkpoint/kitti2015_ck/checkpoint.tar (torch_old, 575341 bytes, 300 tensors)

module.refine_spn.0.0.weight f4 [16, 3, 3, 3]
000000 b7 60 9a be b3 90 ee bd b5 66 32 3e 29 e9 b5 bb
       -0.30151913 -0.11648693 0.17421992 -0.0055514765
000010 db 6d c8 3e 33 32 6d 3e 38 7a 18 bf af 08 c8 bd
       0.39146313 0.2316368 -0.5956149 -0.09767281
000020 00 16 46 3e f8 ff aa 3e 40 24 46 3e 00 e1 e3 be
       0.1934433 0.33398414 0.19349766 -0.445076
000030 fe 86 0a 3e 9b 55 1b 3f 48 4c 88 bd 9f e2 85 be
       0.13528058 0.606775 -0.066551745 -0.2614946
000040 01 5f 8a bd 1e 28 ba 3c 37 15 b0 3d 73 37 67 be
       -0.06756402 0.022724207 0.085977964 -0.22579746
000050 32 a4 ad be f4 6d d5 3a 7d 30 5f 3e 74 4c 13 be
       -0.33914334 0.0016283379 0.2179584 -0.14384633
000060 36 33 16 bd 7b 7f 14 3e 15 59 0c bd 56 1f 93 3c
       -0.036669932 0.14501755 -0.034264643 0.017959278
000070 ee 38 99 3d de 10 de bc 9a 6f 0d bc 5e 31 80 3e
       0.074815616 -0.027107652 -0.008632565 0.25037664
000080 80 72 a4 3e ee 72 3f 3d 59 cf 06 bf 55 90 8a be
       0.32118607 0.046740465 -0.5266014 -0.27063242
000090 bd 81 01 be f8 69 2a 3e 1c 13 6a 3e 72 53 7d 3e
       -0.12647147 0.16641986 0.22858852 0.24738863
0000a0 0f 2e 0e 3e 00 03 4b 3e 5e 97 dc bc f6 9c ac be
       0.13884757 0.19825363 -0.026927646 -0.33713502
0000b0 8d 0f d3 be 64 58 ee bd 69 18 0c 3d ac 48 64 3d
       -0.41222802 -0.11637953 0.034202967 0.055733368
0000c0 d1 c2 fb 3d 73 9d ba 3e e7 2b c9 3e 8d 24 75 bd
       0.12293018 0.3644825 0.39291307 -0.05984931
0000d0 5f 6f e2 be 7d c9 1f be b8 1a 8a 3e 1b 48 a0 3e
       -0.44225594 -0.15604205 0.2697351 0.31305012
0000e0 37 2c 40 3d e0 79 de 3d c9 ed 01 3e f7 b4 b7 bd
       0.046917167 0.108630896 0.12688364 -0.08970063
0000f0 fc 32 67 3b da f4 c9 be ac 09 03 bf 1f 8c 36 be
       0.0035278192 -0.3944462 -0.51186633 -0.1782689
000100 6b a3 9b be cb 86 af 3e 91 f7 e6 be 13 56 3c be
       -0.30398116 0.34282526 -0.45110753 -0.1839221
000110 6b 76 f9 3e da ef b8 be 5f 1c de 3d c5 98 eb 3e
       0.48723158 -0.36120492 0.10845255 0.4601499
000120 e6 cd 75 be 2f 5b 78 bd c2 53 13 bf 7c 3a e9 3e
       -0.24004325 -0.060633834 -0.5754968 0.45552433
000130 47 cb 97 3d fb 15 17 bf 97 0a 13 3f e6 79 ec 3e
       0.07411819 -0.59017915 0.57438034 0.4618675
000140 10 a6 14 3e 0d 0c 6d be da dc 51 3d e4 6e 30 3e
       0.14516473 -0.23149128 0.05123601 0.17229801
000150 81 16 1d 3e d4 d1 f1 be dd 69 e2 3e 3e 11 e5 ba
       0.15340616 -0.472304 0.44221392 -0.0017476452
000160 59 25 26 bd 97 a2 c1 3d 54 fc 0c 3d 44 a5 3b 3e
       -0.04056296 0.0945484 0.034420326 0.18324763
000170 a5 3a ba bd 7a 33 71 3e 4c 2a 1b bf f2 9c 48 3e
       -0.09093217 0.23554793 -0.60611415 0.1959112
000180 f6 ae 4a bd 5b 26 85 be ae 4b 6e 3e a8 cf 85 3d
       -0.049483262 -0.26005825 0.23271057 0.06533748
000190 c1 39 e4 3d 57 5e 9b be 46 47 ff 3e 52 0a c1 be
       0.11143828 -0.30345413 0.49859065 -0.37703186
0001a0 d5 84 e7 bd b9 5f a6 3e 1d 4f be bd d9 cc 2a be
       -0.113046326 0.32494906 -0.092924334 -0.16679706
0001b0 25 3c 8c 3d 8a 4f 84 3e ae 8a 2b 3e ed 78 56 bd
       0.06847409 0.25841933 0.16752121 -0.052361418
0001c0 ad 91 19 bc 96 ca 52 3d 9b fd aa be 96 28 64 be
       -0.009373111 0.051462732 -0.3339661 -0.22281107
0001d0 d9 74 ff bd be 39 cc be 51 cf 01 bf e0 54 a1 be
       -0.12473459 -0.39887804 -0.50706965 -0.31510067
0001e0 4d 5e 08 3e 1e 64 33 bc 8c 41 e5 be 1c ed 2f 3f
       0.13317223 -0.010949163 -0.4477657 0.68721175
0001f0 b8 01 1e 3f 17 a9 e4 3e d5 87 49 3c 6a 62 0c 3f
       0.6172137 0.44660255 0.012300451 0.5483767
000200 44 a5 40 3e 91 c6 54 3e 26 03 31 3c 75 72 c6 3d
       0.18813044 0.20778872 0.010803973 0.096898
000210 55 13 f1 be 91 f7 16 bf 64 7b 56 bb 7d bf 8f be
       -0.47085062 -0.58971506 -0.0032727355 -0.2807578
000220 40 e5 8e be db 2b ef be 33 96 85 3c ed 18 fd bd
       -0.2790928 -0.46713147 0.016306972 -0.1235827
000230 54 2f e7 be 76 62 45 3f 5f c2 66 3f 2a 5a 50 bd
       -0.45153296 0.77103364 0.90140337 -0.050867237
000240 48 8b 94 3d 3d 99 6e 3e c9 62 0e 3f f9 0d a1 be
       0.07253128 0.23300643 0.55619484 -0.31455973
000250 a8 57 62 3d 8a b2 de 3e 95 10 27 bf 43 2b 9d be
       0.055259377 0.4349559 -0.6525968 -0.3069707
000260 ef 2c a7 3d cb 6f 5c 3e 54 d1 39 3d b8 0c cb bd
       0.08162867 0.2152702 0.045365646 -0.09914535
000270 51 f3 bc 3e 61 83 ed 3d 81 ba bb 3c 99 cf 38 be
       0.36904386 0.11597324 0.02291608 -0.18047942
000280 74 f7 20 bf 09 66 1b bd 61 78 22 3e d4 77 2f bd
       -0.62877584 -0.037939105 0.15866233 -0.042838886
000290 9f 30 c3 3c 5e 74 1e be e3 d7 32 3e 61 c1 c4 bd
       0.023826895 -0.15474078 0.17465167 -0.096071966
0002a0 4d 02 8f 3d 53 2c e7 bd 4b c7 03 3e fe bf e8 3c
       0.06982861 -0.11287751 0.12868993 0.028411862
0002b0 2e ea dc bd ff 98 c7 3c 4a f8 00 be cc 89 4c 3e
       -0.10786854 0.024364946 -0.12594715 0.1997444
0002c0 c7 15 aa bc f8 74 04 3e c1 f0 12 be c3 4b 54 bd
       -0.020762337 0.12935245 -0.14349653 -0.051830065
0002d0 3b 5d 6e 3e cc 64 ef bd ff 13 86 3d a2 e5 52 bd
       0.23277752 -0.11689147 0.06546783 -0.051488526
0002e0 03 45 4c 3e 16 f0 c6 bd 9b f0 8d 3b 02 9d 7b be
       0.19948201 -0.097137615 0.004331661 -0.24571612
0002f0 12 5b 90 3e e7 75 41 be 74 6c 2f be 6f f8 0f be
       0.2819448 -0.18892632 -0.17131215 -0.14059614
000300 db 2f 4c 3e 43 b8 96 be 16 22 75 3d 36 06 b8 bb
       0.1994013 -0.29437456 0.05984696 -0.005615975
000310 d8 ae 66 be fe a2 69 bd 49 76 2c 3e 88 17 c8 3e
       -0.22527635 -0.057040207 0.16841997 0.39080453
000320 45 58 ae 3d 12 7b c4 3e f3 0b 2b 3e 05 e0 4f 3d
       0.0851293 0.38375145 0.16703777 0.05075075
000330 1d 80 91 3e 02 9e 55 3e ce 25 d4 3e 97 13 62 be
       0.28418055 0.20861056 0.41435093 -0.22077785
000340 68 f9 04 be 79 6a 17 be 31 4e f4 bb 6d b6 d9 bd
       -0.12985766 -0.1478671 -0.00745561 -0.10630498
000350 94 62 19 be 79 3d 86 be 6f 6b 84 be 30 cb 49 be
       -0.14979011 -0.26218775 -0.25863215 -0.19706416
000360 d8 b1 16 be 92 08 b7 bd ee 9b 0c 3e d6 fb 11 bf
       -0.1471628 -0.089371815 0.13731357 -0.57024896
000370 b8 e4 12 be a1 3f 29 3f 7d fb f1 bd b2 2c 46 3d
       -0.14345062 0.66112715 -0.11815546 0.04838247
000380 a2 90 46 3e 9c 9e cf 3d e4 f7 e8 3c fe d8 8a 3d
       0.1939111 0.10137674 0.028438516 0.06779669
000390 bb 8b e4 be ee f2 08 3d 50 49 a8 3e 40 3a b1 3d
       -0.44637856 0.0334348 0.32868433 0.086536884
0003a0 eb 8a f0 3b e4 d2 9e be 70 1e 76 be 2f 4b 6c be
       0.007340779 -0.31020272 -0.24035048 -0.23075555
0003b0 25 4d 08 3f aa a0 d4 be 1d fc 9d bd d6 71 b9 3e
       0.53242713 -0.41528827 -0.077141024 0.36219662
0003c0 e1 38 64 be 12 08 8e 3e 3e 2e a4 3d b8 f1 0b 3e
       -0.22287323 0.27740532 0.080166325 0.13666427
0003d0 dc 1e 62 3d 8f c2 05 3f 8a 8b 42 be b6 08 9a be
       0.05520521 0.5225 -0.18998542 -0.3008477
0003e0 f2 42 ba 3c 1c f3 38 3d d7 e3 07 3d 69 4a 67 bd
       0.022737 0.045153722 0.03317627 -0.056467447
0003f0 11 f7 2e 3d 31 f8 89 3e 1b cb 9b 3e d8 45 1d be
       0.04271609 0.26947168 0.30428395 -0.15358675

module.refine_spn.0.2.weight f4 [16, 16, 3, 3]
000000 f4 18 19 be 62 45 91 3b a1 96 0b bd 61 89 e4 3c
       -0.14950925 0.00443332 -0.034079198 0.027897539
000010 01 d7 48 3d ac be 0f 3e a5 9c fe be 9b 11 a7 bd
       0.04903317 0.1403758 -0.49728885 -0.08157655
000020 54 aa 41 be 7b de 82 3e 89 0e 02 3e 77 5a 21 3e
       -0.18912631 0.25560364 0.12700857 0.15757166
000030 23 7d 1a 3e 28 e1 06 bd c7 b7 29 3e 32 cd dd 3d
       0.15086798 -0.03292957 0.16574012 0.108301535
000040 fd b2 9d bb 01 ab 89 3d 41 1f 97 3f 0e 2f 84 3f
       -0.004812597 0.067220695 1.1806413 1.032686
000050 bc c1 2b 3e b3 82 1f 3f 93 51 53 3f d6 08 ad 3e
       0.16773123 0.62308806 0.8254635 0.33795804
000060 c7 7a 8c be d8 66 bc bd bf 2e f9 3d be 40 19 bd
       -0.27437422 -0.091993034 0.12167119 -0.03741526
000070 04 55 9b bc b6 4f 17 be d1 ab 81 bd 33 df 48 bc
       -0.018961437 -0.14776501 -0.063315995 -0.012260246
000080 25 84 ff bd 84 0b 56 be d4 6c 1c be cb a8 67 be
       -0.124763764 -0.2090283 -0.1527589 -0.22622983
000090 51 34 83 3f c3 09 45 3f 4a ab 3f 3f 7d fe c9 3e
       1.0250341 0.7696802 0.7487074 0.39451972
0000a0 90 35 26 3f a2 45 9f 3e 74 41 a6 be 58 7c f0 bd
       0.6492548 0.31107813 -0.32471812 -0.11742467
0000b0 de 2d 9c be 91 93 50 3f e7 56 61 3f 8d 3c ac 3e
       -0.30503744 0.8147517 0.8802323 0.33639947
0000c0 47 da 7b 3e 8d 8d 19 3f 5c 17 06 3e 4b c9 77 be
       0.24594985 0.59981614 0.13094848 -0.24197881
0000d0 16 0a 21 be 6d 87 18 be cf ee 1e be a3 f8 55 bd
       -0.15726504 -0.14895411 -0.15520786 -0.05223907
0000e0 ae bb ab bc 7c 03 1a be c3 ae bb bd 92 2c 8c 3d
       -0.020963516 -0.15040392 -0.091641925 0.068444386
0000f0 3a 44 98 be bb 5d 7e be 7a bf 5c bd bb 55 ca be
       -0.29739553 -0.24840443 -0.053893544 -0.39518532
000100 46 51 6e be 62 c9 f5 bd 6b f0 5b be 0e dc f0 bd
       -0.23273191 -0.12001301 -0.21478431 -0.11760722
000110 27 e7 4c be a3 2a 05 3e f3 66 70 3e a9 1b ac bd
       -0.20010053 0.13004546 0.23476772 -0.08403713
000120 b8 40 6a 3e c0 22 25 3e ea e7 e9 3d b1 ee 53 3d
       0.2287625 0.16126537 0.11421187 0.051741306
000130 aa c6 6b 3e 97 93 19 bd be 88 9c bd 97 38 b4 3c
       0.23025003 -0.03749427 -0.07643269 0.02199964
000140 a4 0b d3 bd 45 0d b0 3d 2c 1d 07 bd 43 b9 16 be
       -0.10304955 0.08596281 -0.032986805 -0.14719109
000150 36 84 92 3c b0 99 4b bd 72 a7 df bc 62 e3 b3 bd
       0.017885309 -0.049707115 -0.027301524 -0.08783604
000160 61 1d 0f bd 92 77 4c bb a9 de a1 be ba f8 8d bd
       -0.034940127 -0.00311992 -0.3161519 -0.069322065
000170 9f ea 7c be 95 99 47 be d0 4c cc bd b3 29 96 3d
       -0.24698876 -0.1949218 -0.09975588 0.07332172
000180 7a 80 c0 bc fc 72 4e 3e 37 ad f4 3d 87 bb 67 3f
       -0.023498762 0.2016105 0.119471006 0.9052052
000190 81 32 fc 3e bc 2e 36 be e8 5f a7 3e 87 e4 9b 3e
       0.4925728 -0.17791265 0.32690358 0.3044779
0001a0 40 cc 2d 3e 38 43 3c 3e b8 e2 62 be b1 59 de be
       0.16972446 0.18385017 -0.22156799 -0.43427804
0001b0 4e eb 19 be 75 ea ef bd 44 62 51 be 4c f2 aa bd
       -0.15031168 -0.11714641 -0.20447642 -0.08346996
0001c0 30 b2 21 3e 27 6e 73 3b 64 23 db be d6 cc 80 3d
       0.1579063 0.0037144513 -0.42800438 0.06289069
0001d0 da e3 7b 3d e9 24 4e 3e f0 7a c3 3d fb 74 17 3e
       0.061496593 0.20131268 0.09544933 0.14790718
0001e0 8a f3 ba 3e cd 5a 95 bd 1e fa 67 be 7b 76 6c be
       0.3651393 -0.072927095 -0.22654006 -0.23092072
0001f0 c0 17 da be d4 34 10 be fb 58 3b 3f 2c 7a 3e 3f
       -0.42596245 -0.14082652 0.7318265 0.7440517
000200 f6 14 cd 3e f1 dd 5d 3f d6 9a 43 3f be d0 36 bd
       0.40055054 0.8666678 0.76408136 -0.044632666
000210 bf 0e 8b be 64 7d ca be 73 30 ba be bb ea 24 bf
       -0.27159688 -0.3954879 -0.3636509 -0.6442067
000220 69 42 a7 be 08 5b e0 3d 90 8b be be 86 6e 23 be
       -0.32667854 0.10954863 -0.37215853 -0.1596013
000230 d8 37 85 3e d0 7d 20 be f7 8b 25 3e c7 8a 72 3e
       0.26019168 -0.15672994 0.16166674 0.23685752
000240 a3 68 7c be 2b c2 22 3e 52 93 8a 3e fc 25 59 be
       -0.2464929 0.15894382 0.2706552 -0.21205896
000250 4a 48 81 3e 93 23 04 3e 33 8f 1e be 37 01 8d 3e
       0.25250465 0.12904195 -0.15484314 0.2753999
000260 33 f5 b5 3e 4b e9 f3 bd cf ab f1 bd 2d ff c3 bb
       0.35538635 -0.119097315 -0.11800348 -0.005981347
000270 38 9d b9 be 81 12 63 be 15 c3 f3 bc e4 c2 90 be
       -0.3625276 -0.22175027 -0.029756108 -0.2827369
000280 9c ce 6d bd c2 4e a6 3d 50 15 cf be 22 25 83 3e
       -0.058058366 0.081204906 -0.40445948 0.25614268
000290 ac 9f 54 3f ce d4 d5 be ac 69 8b 3e cd 96 23 3f
       0.8305614 -0.4176392 0.2722906 0.6390198
0002a0 d3 ee 0d bb 7e 02 b2 3e 3a ab b7 3e e1 1f 5e 3c
       -0.0021657243 0.34767526 0.35872823 0.013557405
0002b0 2a cc 86 3e e1 b9 a0 3e 6e 36 1e 3e 94 da db 3e
       0.2632764 0.31391814 0.15450451 0.429402
0002c0 75 4b 6d 3e 5e c5 85 bd 25 b9 77 3e e3 5b af 3e
       0.23173316 -0.065317854 0.24191721 0.34249792
0002d0 c6 30 db be 39 ab 4c 3e 62 50 5f 3f 29 d5 c2 be
       -0.4281065 0.19987191 0.8723203 -0.38053253
0002e0 4c 70 ce 3c 33 4f 63 3e ee 66 7a be 90 2d c7 bd
       0.025200032 0.22198181 -0.24453327 -0.09725487
0002f0 fe 40 04 3f be 22 84 bf 49 1a c0 3e a5 db f8 3e
       0.5166167 -1.0323102 0.37520054 0.48605075
000300 23 d5 1d bf 2e 84 b6 bc f6 86 10 be 69 43 ea be
       -0.61653346 -0.022279825 -0.14113984 -0.45754555
000310 e8 03 35 bd 01 b4 c7 3e ff b4 1e 3e ed d0 92 3d
       -0.04419318 0.3900452 0.15498732 0.07168756
000320 1c a2 6c 3e 66 9d 11 be af 48 0e 3d 7b 95 0a bc
       0.23108715 -0.14220199 0.034737285 -0.0084584905
000330 50 4d 18 be 82 88 53 be 55 cc 1f be 9f 8e 84 be
       -0.14873242 -0.20657542 -0.1560529 -0.2589006
000340 08 da c9 be 27 84 92 be 2c d6 d0 be 21 20 18 bc
       -0.39424157 -0.2861645 -0.407884 -0.009285004
000350 c1 e9 d5 be 9d 9c 29 3d 59 e9 81 3d 16 39 93 3e
       -0.41779903 0.041409124 0.06343336 0.2875449
000360 75 3d 44 3d b0 38 cc 3e fb 13 2c 3f 31 fc 2a be
       0.047910172 0.39887 0.6721799 -0.16697766
000370 6a 8f e0 bd 3b 32 0f bc 93 3f 46 be b1 c1 ae 3e
       -0.10964854 -0.008740003 -0.19360189 0.3413215
000380 9f bc b0 3e 0d 15 92 be 2f 90 8a 3d 26 b3 78 3d
       0.34518906 -0.28531685 0.06765782 0.060717724
000390 91 45 f3 bd 29 81 1d 3e 7c ed 01 bd c5 17 75 3d
       -0.11878503 0.15381302 -0.031720623 0.05983712
0003a0 24 96 64 3e 50 92 e8 bd 35 11 11 be 42 87 74 be
       0.22322899 -0.11356032 -0.1416672 -0.23879722
0003b0 01 a9 77 bd 8d 74 31 3b 71 31 c7 bd 94 90 0c bb
       -0.06046391 0.0027077526 -0.09726227 -0.002144848
0003c0 84 39 64 bd 84 e6 ba be a0 41 51 be 12 49 2b be
       -0.055718914 -0.36503994 -0.2043519 -0.16727093
0003d0 7b 4c 04 3f 13 49 3e 3f 1e f8 c9 bd 82 58 90 3e
       0.516792 0.7433025 -0.09861778 0.28192526
0003e0 67 50 0d 3f 42 a8 0b be b1 ee 96 3d c7 4a 3b 3f
       0.5520081 -0.13638404 0.073697455 0.73160976
0003f0 59 10 91 be 27 9c 4c bd 0e 99 a0 3e d5 df 27 3e
       -0.28332785 -0.049953606 0.3136677 0.16393979

module.refine_spn.0.4.weight f4 [16, 16, 3, 3]
000000 3f 83 10 be c7 dc db be cb 0e 74 be 85 ff a3 3e
       -0.14112566 -0.42941877 -0.23833768 0.32030883
000010 b4 40 93 be 94 be ab be a9 21 58 3e f6 b4 db 3d
       -0.28760302 -0.33543837 0.2110659 0.10727875
000020 0f e8 40 3e 9e 8d 17 3e 69 4f da 3e 8d 84 78 bc
       0.18838523 0.14800116 0.4263871 -0.015168321
000030 fe c3 ca 3d fa 30 73 3d 0c 03 87 bc 47 e4 9a 3e
       0.09900664 0.05937288 -0.016480945 0.30252287
000040 8d 5b a6 b9 2c 0a 21 3e 24 bc 5c 3e 23 ac 20 3e
       -0.00031730198 0.15726537 0.21556145 0.15690665
000050 b1 d8 c3 3d 45 5f 06 3e 70 dd 19 bc dc 12 3f 3e
       0.09562815 0.1312228 -0.009391174 0.18659538
000060 d3 65 0d 3e 8a f9 74 3e f5 9e 8b bd d9 12 6f bf
       0.13808374 0.23923317 -0.06817428 -0.93388134
000070 1f c3 ff be 37 78 90 be 4b cf f9 3c 38 20 32 be
       -0.49953553 -0.28216717 0.030494353 -0.17395103
000080 d8 68 77 3d 2d dd 4c be e4 bb eb bd 9c 2e 82 3e
       0.06040272 -0.20006247 -0.11510447 0.25426185
000090 df 64 dd 3d bd ac 19 3f 4b e9 49 3f 7f dd 9b be
       0.10810255 0.600292 0.788716 -0.30442426
0000a0 78 c9 04 3e 6d 38 bd 3c 54 72 79 be c5 bb 87 be
       0.12967479 0.023098195 -0.24360019 -0.26510444
0000b0 0f 7c de be 25 50 e6 be f6 17 cd be 72 8e e2 be
       -0.43454024 -0.4498302 -0.40057343 -0.44249302
0000c0 82 bd c9 be 85 2c 2b be 33 9a 5c be bc e8 f8 bc
       -0.39402395 -0.16716202 -0.21543197 -0.030384414
0000d0 42 c3 78 be 10 68 66 bb 79 8f f7 3d 78 18 48 3e
       -0.24293235 -0.003515724 0.12087912 0.19540584
0000e0 06 93 df 3d 03 65 23 bb dd 2f 04 be 1a 63 97 bd
       0.10916714 -0.0024932034 -0.12908883 -0.07391949
0000f0 94 44 b6 3e 94 04 3d 3d cb d1 0b 3d c2 a7 a8 3d
       0.35599196 0.046146944 0.03413562 0.08235122
000100 03 39 f2 3d e4 41 9d 3d 4a 88 22 be d8 9e a4 3e
       0.1182728 0.07678583 -0.15872303 0.32152438
000110 e5 43 e4 3c 2e 37 ab be ab 93 91 be 21 67 13 3c
       0.027864406 -0.33440536 -0.28432974 0.008996756
000120 20 46 99 bc 5d 4c 73 be 0b fa b4 bd 70 6d ce 3e
       -0.018710196 -0.23759599 -0.088367544 0.4031787
000130 ed eb 0b bc 7f 48 e3 bc 99 00 06 3e 3b 81 3c bd
       -0.008540136 -0.02774453 0.13086165 -0.04602168
000140 70 0c 16 3e 65 4a bf be de 1b 85 bd 63 d6 77 be
       0.14653182 -0.37361446 -0.06499456 -0.24202876
000150 05 47 47 bd 48 19 3e be 68 b9 42 be 0d 6c 14 be
       -0.048651714 -0.18564332 -0.1901604 -0.14494343
000160 43 93 68 bd fc 66 05 bd 5f 9f a5 bc dc 25 ab 3d
       -0.056781065 -0.032568917 -0.020217596 0.083568305
000170 25 49 af 3d 24 5a 70 bd 36 30 45 3e f4 97 5b 3c
       0.08558873 -0.058679715 0.19256672 0.013402928
000180 0d f9 80 be e3 08 ba be a0 3f b6 bd 70 0e a3 3e
       -0.2519001 -0.36334905 -0.08898854 0.31846952
000190 f0 13 fb bc 71 b7 c1 3d 91 44 1b 3e bb 44 9e 3c
       -0.030649155 0.09458817 0.15162875 0.019319883
0001a0 ad cd bd 3d a7 29 82 be c5 ef 68 bd 83 94 64 be
       0.09267745 -0.25422403 -0.056869287 -0.22322278
0001b0 63 c1 b6 bb 66 72 16 3e a8 cb db 3e 30 20 76 be
       -0.0055772527 0.14692077 0.42928815 -0.24035716
0001c0 2b 23 f9 3d 70 10 00 3d 36 fb a0 be c2 e3 8e be
       0.12164911 0.031265676 -0.3144166 -0.2790814
0001d0 82 f9 d3 be a2 48 86 3d 91 4c 38 bf 27 98 8b bd
       -0.41401297 0.06556822 -0.7199183 -0.0681613
0001e0 41 50 cb 3e 66 df cd bd bf de 75 be ae 64 9a 3e
       0.39709666 -0.100523755 -0.24010752 0.30154938
0001f0 5c 23 2a 3e 74 d1 5c 3e 25 e4 af bc 8e 57 31 be
       0.16615051 0.21564275 -0.021471092 -0.17318556
000200 22 56 48 bf b3 5c 1d 3e 09 61 04 3e c9 e0 22 bd
       -0.7825643 0.15367393 0.12927641 -0.039765153
000210 11 d0 00 3d 01 95 b1 3d 9d 7c 5c 3e 5b 1f 9f be
       0.031448428 0.08670998 0.21531911 -0.3107861
000220 4e 71 ae be f2 de b8 be ba d1 29 be 46 61 0f be
       -0.3407082 -0.36107594 -0.1658391 -0.1400195
000230 72 d6 a3 bd a7 60 6b 3c 7e 80 5e be 3e 5f b4 be
       -0.079998866 0.014366305 -0.21728703 -0.35228914
000240 47 7a ae 3e 3e 45 8f 3e 67 4c d1 3e cb 65 63 be
       0.34077665 0.27982515 0.40878603 -0.222068
000250 7a 12 f1 bd 33 3e 93 3e 8f c4 50 bd 5e bf e8 be
       -0.11771102 0.28758392 -0.050968703 -0.45458502
000260 dc c6 95 3d 09 1d b8 be 89 4a 06 3e c1 7e 11 3e
       0.0731332 -0.35959652 0.1311437 0.14208509
000270 90 15 01 bf f4 aa d8 3d ba a6 29 3e 9a 9c 06 bf
       -0.50423527 0.10579482 0.16567507 -0.52582705
000280 56 71 39 3e 56 72 dc 3d 1f e2 3b be 79 69 f3 bb
       0.1810964 0.10763995 -0.18347977 -0.007428345
000290 e6 ac 03 be df 01 9e be 14 1d 06 3e 32 6f 08 3d
       -0.12858924 -0.30860803 0.1309703 0.03330917
0002a0 08 8b 16 b9 87 b3 e1 3d 58 9b 20 3d f1 27 d5 3e
       -0.00014356908 0.1102057 0.039210647 0.41632035
0002b0 5c a2 95 bd 84 62 aa 3d 69 79 c7 be 5a 1b a8 bd
       -0.07306358 0.083195716 -0.38959816 -0.08208342
0002c0 9c 10 fc be 1e bb 9a 3e c5 e4 08 bd 97 82 c2 be
       -0.49231422 0.30220884 -0.033421297 -0.37990257
0002d0 2f 59 9c be 35 e6 e0 be dc 3f 2d bf 67 c4 f2 3e
       -0.30536792 -0.43925634 -0.67675567 0.47415468
0002e0 aa 35 9b bc 84 ff 74 be 0f df 68 3f 5a 98 7b 3e
       -0.018946487 -0.23925596 0.9096536 0.24569836
0002f0 1f e8 bc be 50 18 dd be e6 cc 70 be 80 15 25 bf
       -0.36895844 -0.4318261 -0.23515663 -0.6448593
000300 d2 20 37 bf 57 72 4c be d7 10 56 bf 89 a1 79 bf
       -0.71534455 -0.19965492 -0.83619446 -0.9751211
000310 08 35 d5 be 6e a7 40 bf b0 3d 4e 3e 51 aa 91 3e
       -0.41642022 -0.7525548 0.2014072 0.28450254
000320 aa 03 d3 3d e9 e4 9f 3d 26 33 a7 3d d3 1b b7 be
       0.10303433 0.07807333 0.08164053 -0.35763416
000330 5f 5e 03 bf d6 b9 07 be 01 11 0f 3f d4 40 b4 be
       -0.51315874 -0.13254485 0.5588532 -0.3520571
000340 fc b4 1e bf 1e 41 36 bf 05 3b 7a 3e 05 26 b8 bd
       -0.6199491 -0.7119311 0.24436577 -0.08991627
000350 8d 81 a5 be 92 aa 4b 3f a9 5a c8 3e 56 d9 8f bd
       -0.32325402 0.79557145 0.39131668 -0.070238754
000360 45 0c 4e be 7a 7b 81 be d6 b5 63 3e 89 fa a6 3e
       -0.20121868 -0.25289518 0.22237334 0.32613018
000370 c6 e3 12 be 60 ac e7 3d 0c fa 31 be 26 28 a4 bd
       -0.14344701 0.11312175 -0.17380542 -0.0801547
000380 52 9f 85 3e 2f 50 ad 3e 7c 20 49 3e 4d 44 a6 3e
       0.26098114 0.33850238 0.19641298 0.32473984
000390 fe 64 c1 bd 43 dd 49 3e e0 e8 55 bd 93 39 cb bc
       -0.09443091 0.19713311 -0.05222404 -0.024807727
0003a0 a8 1f 82 3e 6c ba b3 bd ac f0 1f be c5 f7 4a bd
       0.25414777 -0.087757915 -0.15619153 -0.049552698
0003b0 c0 54 03 be 8a 3f a3 3d 2f 8e 5b be ef 7f 18 be
       -0.12825298 0.079711035 -0.21440957 -0.14892553
0003c0 8e c8 aa 3e 08 9a 41 3d 17 69 5d 3d ac fe d5 bd
       0.33356136 0.047266036 0.0540553 -0.104489654
0003d0 cd 78 2f be a1 3d 95 bd 24 cc 14 3e f1 d1 db bc
       -0.17135926 -0.072871454 0.14530998 -0.026833506
0003e0 89 b4 a0 bd 51 a9 90 3d 0a 42 8c 3c 4f 88 66 3e
       -0.07846934 0.070635445 0.017121334 0.22512935
0003f0 08 43 67 bd c8 2d 8f be 88 70 b1 bf 9b 29 ee 3d
       -0.05646041 -0.27964616 -1.3862467 0.11629029

module.refine_spn.0.6.weight f4 [24, 16, 3, 3]
000000 a8 1f df 3d ba 73 90 be 64 70 50 be f4 d9 80 3e
       0.1089471 -0.28213292 -0.20355374 0.25166285
000010 86 72 f7 3e e5 92 eb bc 60 42 2e be 66 e1 1d 3e
       0.48329562 -0.028756568 -0.17017508 0.15418014
000020 dc 27 90 bc ba 53 8a bd 27 e6 0d 3d 9b cc 73 3e
       -0.017597131 -0.06754251 0.03464332 0.2380852
000030 26 6b 98 3d 51 43 91 3e d0 4c 05 3f 76 85 cd bd
       0.07442312 0.2837167 0.5207033 -0.10035221
000040 8c 1c 16 3e b2 5f dd 3e 62 df be 3d be 79 e5 3d
       0.14659327 0.43237072 0.09319951 0.11204861
000050 4a c5 18 3c 0a 7f 46 be e8 83 7f be e2 03 84 be
       0.009324381 -0.19384399 -0.24952662 -0.25784212
000060 72 96 f9 3e 2d b5 ff 3e 75 f1 61 3f a6 07 57 3e
       0.48747593 0.49942914 0.8825906 0.20999011
000070 f3 56 5f 3e 51 89 9a be 2e b8 a2 3e 09 15 51 3e
       0.21810512 -0.3018289 0.31781143 0.2041818
000080 36 f3 be 3d b5 57 4f 3e e9 c9 9a bc 53 6f 44 bd
       0.093237326 0.20248301 -0.018895106 -0.04795773
000090 01 51 af be 9a ca d6 bd 49 24 bd bd 4b 66 4c 3d
       -0.3424149 -0.10487862 -0.092354365 0.04990224
0000a0 7b f0 dd 3c 44 2a 11 be 27 eb 58 be f8 7a 42 bd
       0.02709221 -0.1417628 -0.21183454 -0.047480553
0000b0 d9 55 67 3d 95 83 07 be c9 10 aa bd ea d2 2d bd
       0.056478355 -0.13233788 -0.08303983 -0.04243747
0000c0 ea b6 c6 bd e3 fd 71 3e b0 8c ca bc 98 b9 fd 3d
       -0.09702857 0.23632006 -0.024725288 0.12388915
0000d0 23 4e 47 3e e1 c4 a6 bd 84 cf e1 3e 86 74 c0 3e
       0.194634 -0.081430204 0.44103634 0.375889
0000e0 03 aa 01 3d e2 d6 f9 3c a1 77 80 be 14 bf 1c 3e
       0.031656276 0.030497972 -0.2509127 0.15307266
0000f0 98 12 3d 3e 47 5b ee 3b 82 ae a5 3e 0a 00 15 3e
       0.18464124 0.0072740647 0.323597 0.14550796
000100 09 af 2f be dc 6b bd bd 41 33 1b 3d 0a ee 9e bd
       -0.17156614 -0.09249088 0.037890676 -0.07760246
000110 ce 8a 00 be a7 b5 cb 3e 20 68 8f bd bc 13 2a 3d
       -0.1255295 0.39787027 -0.07002282 0.041522726
000120 5a 83 df 3f a3 0e 61 3e 66 bd 08 bf 9f 28 82 3f
       1.746196 0.2197824 -0.53414 1.0168647
000130 e4 85 47 3f 7a de ea 3c e7 b5 9b 3e 9c c0 b6 be
       0.77938676 0.028670538 0.30412218 -0.35693824
000140 0a a0 a8 be 8b 1e f5 3d 1c 7d 81 bd 81 ae 9c 3d
       -0.329346 0.11968716 -0.06322691 0.076504715
000150 80 84 ad 3e 08 50 8c bc 7d 35 88 bd a0 31 e7 3d
       0.33890152 -0.017128006 -0.06650827 0.11288762
000160 52 b6 65 3d d8 00 7f 3d cf c6 92 bd 4c d4 6c be
       0.056082077 0.062256664 -0.07166826 -0.2312786
000170 9c 6c 16 3e 84 1a 4e 3e 7f d8 29 3d bf b7 e5 3c
       0.14689869 0.20127302 0.041466232 0.028041719
000180 70 60 2d 3d 12 47 0e 3d 20 cb a5 3d 7a 89 0c 3e
       0.042328298 0.034735747 0.08095384 0.13724318
000190 4f 12 82 3e 07 04 bb bd 55 36 ed bd 50 d7 9b bc
       0.25404593 -0.091316275 -0.11582629 -0.019023567
0001a0 74 87 ad be 76 78 e2 bd f5 7b cd 3b 4c 89 58 be
       -0.33892405 -0.11058132 0.0062708803 -0.21146125
0001b0 b0 4d 90 3e 4d 60 6d 3f bc 29 94 3e 6a 31 39 3e
       0.2818427 0.9272507 0.2893809 0.18085256
0001c0 30 b5 06 3f a4 68 ae be 05 f4 2c 3e cc 39 aa 3e
       0.5262022 -0.3406421 0.16889961 0.3324722
0001d0 ea fc 59 be e1 e5 95 3e 8a 82 71 3d 44 3c 92 3d
       -0.21287885 0.29276946 0.058962382 0.07140401
0001e0 b0 33 0e 3c 49 8e 0a 3e d8 b9 c3 3d 50 3f d1 bd
       0.008679315 0.1353084 0.09556931 -0.10217154
0001f0 2c cd af bb 15 00 b5 3c e8 0d 26 3f a2 6e b9 3e
       -0.0053650346 0.022094766 0.6486497 0.3621722
000200 b8 28 a4 3d 00 d2 2f 3e bc ed b8 3d 78 46 89 3d
       0.08015579 0.17169952 0.09029719 0.06702894
000210 8f c7 22 3d 4d d7 4c 3e c2 f0 d5 bd 4c 07 04 be
       0.039741095 0.20004006 -0.104463115 -0.12893409
000220 9a 3c 88 3e 27 0f 6c bd e7 10 a8 be 45 c5 be 3e
       0.26608735 -0.057631638 -0.32825395 0.3725988
000230 15 fc 3b 3e 28 45 02 be f1 eb 3a 3d fe 26 f1 3d
       0.1835788 -0.12721694 0.045635168 0.11775015
000240 da 55 b6 bd 54 f2 e5 bc 08 61 de bd 53 21 44 be
       -0.08903094 -0.028069653 -0.10858351 -0.19153337
000250 b5 61 9a be 97 f0 5d bd fd 14 fd 3d f2 3f 88 be
       -0.3015267 -0.054184522 0.12357519 -0.26611286
000260 5b 7f 78 3e b6 e3 0c 3d 56 16 89 3d 1e 33 8b 3d
       0.24267332 0.03439685 0.06693713 0.06796859
000270 7f 8f 9c 3d 8c c6 2a bd 5c 51 06 3e 43 8b ca be
       0.07644557 -0.041693255 0.13116974 -0.39559373
000280 10 79 a8 3d 48 fb 93 be d4 c4 8b bc 4c cf 81 3c
       0.08226216 -0.2890265 -0.017061628 0.015845917
000290 40 f2 41 3d f4 ba 87 be 69 2a 20 be 94 ad 5f be
       0.04735017 -0.2650982 -0.15641178 -0.21843559
0002a0 68 72 dd be d7 94 62 be 6e 52 74 be 98 f7 fe 3c
       -0.43251348 -0.2212709 -0.2385957 0.031123921
0002b0 63 7d af bd ff db 5d 3d 0c 52 4c 3e c3 95 95 3c
       -0.085688375 0.054164883 0.19953173 0.018259889
0002c0 24 5b a7 3e 1b ef 92 3e a4 0e 1f be d0 55 a3 3e
       0.32686722 0.28698048 -0.15532929 0.31901407
0002d0 8e 8b 4f bc 03 85 87 3d 8e f5 c5 3c 09 65 01 3e
       -0.01266755 0.06617167 0.024164941 0.12636198
0002e0 9c 27 d9 3d cc 1d 17 3e 18 16 e4 3e c3 6a cc 3e
       0.10603258 0.1475746 0.44548106 0.39925203
0002f0 3a 17 82 3e 8e 29 90 3d 04 75 0b 3c a0 2d 06 bd
       0.25408345 0.07039176 0.008511785 -0.032758355
000300 c8 7f 5a 3d 62 90 14 3e 8a 40 f8 3d 54 80 4f 3e
       0.053344518 0.14508203 0.12121685 0.20263797
000310 c8 45 b3 3e 17 42 87 3e fb 79 87 3c fc 0a 70 3d
       0.35014176 0.2641761 0.016537657 0.058604226
000320 16 52 80 3d fa 10 12 3e d1 88 f6 3c 37 a9 ff bd
       0.06265657 0.14264289 0.030094536 -0.12483447
000330 b0 e0 2c be f8 18 b4 be 51 ae ec 3d 34 03 39 be
       -0.16882586 -0.351753 0.11556686 -0.18067628
000340 b8 aa c0 3e 91 3c 4c 3e 06 2d ec bd 9c 13 c4 bd
       0.37630248 0.19944979 -0.11532025 -0.09574053
000350 e1 f5 54 be 22 81 0a be 04 1d 0c 3f b2 8f 40 3c
       -0.2079692 -0.13525823 0.54731774 0.01175301
000360 53 b0 3f be 81 c4 46 bd 5d c1 bb be 13 04 01 3f
       -0.18719606 -0.048527244 -0.36670962 0.5039684
000370 e0 ec 3f bc 14 89 56 be 03 82 e4 3e 8b d3 ac 3e
       -0.01171419 -0.20950729 0.4463044 0.33755144
000380 9d 24 ca 39 9f 08 9a 3a 69 1e 0f 3d 57 cb 75 bc
       0.0003855572 0.0011751837 0.03494111 -0.015002093
000390 f0 e8 e5 3d 8b fb b0 3d 54 21 c8 3d 61 4d c2 3e
       0.1122607 0.08641728 0.09771982 0.3794966
0003a0 49 3b 55 3e 31 ce c1 3e 6d a1 68 bd 33 5d 1f bc
       0.20823397 0.37852624 -0.056794573 -0.00972681
0003b0 19 56 a4 bc 67 f4 6e 3c f2 07 91 bb c3 5b d7 bd
       -0.020060586 0.014584637 -0.004425996 -0.10515549
0003c0 0a 66 72 3d 22 d7 8d bd 55 e6 37 3d 89 c8 e3 bc
       0.059179343 -0.06925799 0.044897396 -0.027805584
0003d0 14 8e 03 bc 72 1d 34 3d 6f 54 16 3e 44 7f 93 3d
       -0.0080294795 0.043973394 0.14680646 0.07202008
0003e0 61 2c 37 3e 5c f5 82 3e 9c 8d 79 3d c6 99 9c 3e
       0.17888023 0.2557782 0.060926065 0.3058607
0003f0 c3 ca 85 bd fd f8 d3 bc 50 31 83 bd 55 49 9f bd
       -0.06532814 -0.025875563 -0.0640589 -0.07777659

module.refine_spn.1.weight f4 [8, 1, 3, 3]
000000 89 9e fd bd 25 9c bb 3a 7f d7 f6 bc 3e 5c 36 bd
       -0.12383754 0.0014313502 -0.030132053 -0.044521563
000010 6d 4a c2 bd 40 2e bd bd e9 38 7a 3e c6 3b 4b be
       -0.09486852 -0.09237337 0.24435772 -0.1984702
000020 01 c1 63 3d a9 e8 21 be 67 7b 2b bc c9 69 28 bd
       0.055603985 -0.15811409 -0.010466433 -0.04111651
000030 07 3a 45 3e 13 dc c5 be 68 7f 54 3d 74 2e 2d 3e
       0.19260417 -0.38644466 0.051879317 0.16912252
000040 6e bc 0e 3e 57 7f 23 3d f8 08 04 be fa 3c b1 bd
       0.13939068 0.039916363 -0.12894046 -0.086542085
000050 6b d5 ff 3d 60 37 d6 bd 73 8f c6 bd 4c bf b2 3d
       0.12491878 -0.10459781 -0.096953295 0.08727893
000060 a3 a9 38 3d 57 2f 5b 3b 0d df 7f 3e e1 0a d5 bc
       0.045083653 0.0033444965 0.24987431 -0.026006164
000070 12 7b 13 3d f1 d2 e0 3d a7 02 79 bd 80 57 82 3e
       0.03600604 0.10977734 -0.060793545 0.25457382
000080 ef 8a e5 3d 4a 3d 40 3d dd 3c 74 3e 74 95 8b be
       0.1120814 0.04693345 0.23851342 -0.2726246
000090 09 4f 4f bd 02 29 1b be ee 4e 51 be 94 ec 56 be
       -0.050612483 -0.15152362 -0.20440266 -0.20988685
0000a0 40 c4 50 3e fc b6 68 be 1a a1 2e 3e 5e d3 12 3d
       0.20387363 -0.22726053 0.17053643 0.035846107
0000b0 47 21 6a be ed 65 72 be 4a ab 11 be 4a f6 72 be
       -0.22864257 -0.23671694 -0.14225498 -0.23726764
0000c0 c7 11 09 be 65 86 1b 3e 71 a0 38 3c 78 f7 7d 3e
       -0.13385688 0.15187986 0.011268721 0.24801433
0000d0 97 b9 8f 3e 15 22 4e be a0 ae 00 3e 18 c1 4f 3d
       0.2807128 -0.20130189 0.12566614 0.050721258
0000e0 3f 26 1b 3e 29 4b bc 3b 0d ba 54 3d 6e 37 b4 bd
       0.15151308 0.0057462645 0.051935244 -0.08799635
0000f0 ef 94 5b be f3 89 36 be 37 b0 b2 bd 67 20 91 bd
       -0.21443532 -0.17826061 -0.087250166 -0.070862584
000100 16 7c 3c be 1f d8 43 3e ba c1 02 3e c6 ef d5 bd
       -0.1840671 0.19125412 0.12769213 -0.10446124
000110 0b 8a 03 3e df 16 6d bd d8 1f b9 bd ef 61 0d 3e
       0.12845628 -0.05788314 -0.09039277 0.1380689

module.refine_spn.2.weight f4 [1, 8, 3, 3]
000000 a1 70 4f be fa aa 22 bf 1a 3c 39 3f c7 f1 6a 3b
       -0.20257808 -0.6354214 0.7235733 0.0035849677
000010 89 14 8a be 48 6d 86 3d 09 e6 41 3e 81 1c fc be
       -0.26968792 0.065638125 0.18935408 -0.49240497
000020 d0 10 1d 3f 4b 5c 7e be b3 85 48 3e a8 e5 39 3f
       0.6135378 -0.24839894 0.19582252 0.7261605
000030 5b 3c 8e 3e 5c 63 39 bf 64 78 43 bd ee 02 e5 3e
       0.27780423 -0.72417235 -0.047722235 0.44728798
000040 3d 32 2c bf 6e 00 d3 3d d2 88 0f bf c6 59 cc be
       -0.6726416 0.10302816 -0.56068146 -0.39912242
000050 fa 43 d6 3e 4b e8 7e be dd 9c e5 be 2d c8 e7 3e
       0.41848737 -0.248933 -0.4484624 0.4526991
000060 0c fb 43 3e 35 8f 9f 3e 60 26 9f 3e 15 87 bc be
       0.19138736 0.31163946 0.31083965 -0.3682181
000070 b2 38 70 3e c1 86 c8 bd 86 c3 7f bd bc 85 46 3f
       0.23459128 -0.09791327 -0.062442325 0.7754781
000080 4c 15 54 bd a4 f4 45 3f df 19 4f bf 98 f2 84 3e
       -0.051778123 0.77326417 -0.8089885 0.25966334
000090 ae 71 90 3e ef 83 2e be ce 7b 82 3d 2c 32 d4 3e
       0.2821173 -0.17042516 0.0637127 0.41444528
0000a0 60 1e 02 bf 89 ad 1b 3e b8 f2 7c bf 7c 29 a3 be
       -0.508276 0.15202917 -0.9880786 -0.31867588
0000b0 b0 4b a2 be 84 ed a1 be bd 15 1f be c2 3a b0 be
       -0.3169837 -0.31626523 -0.15535636 -0.3441983
0000c0 96 3e 12 3f 5d af 16 be 05 ab 3a 3e 01 2f 4c 3f
       0.5712675 -0.14715333 0.18229301 0.7975922
0000d0 b3 28 3c be 81 d0 01 3e 54 34 a6 3e 6c 6b d9 be
       -0.183749 0.12677194 0.32461798 -0.4246477
0000e0 e0 e4 cb be e5 d8 cd be 59 3a c7 3e 3b 49 cd bd
       -0.39823055 -0.4020454 0.38911703 -0.10023733
0000f0 08 e4 7a 3a 33 61 61 3f 96 c0 28 3e 27 06 2a be
       0.00095707225 0.8803894 0.16479716 -0.1660391
000100 a8 e8 3e 3f aa 39 3b 3e 9a 77 ca 3e 4e ae 1c be
       0.74573755 0.18283716 0.39544374 -0.15300867
000110 8c 3c dc be f0 c1 45 be 74 63 50 be 64 23 ff bd
       -0.43014944 -0.19312263 -0.20350438 -0.12457922

module.feature_extraction.block0.0.0.weight f4 [1, 3, 3, 3]
000000 76 40 c0 be 1b 63 8c bc d0 2a 8c 3e 54 28 4d 3e
       -0.3754918 -0.0171371 0.27376413 0.20034915
000010 e2 ca 77 3e ef ee 7d 3e f1 de 1f 3f b9 28 f7 3e
       0.24198487 0.24798177 0.62449557 0.48273256
000020 5e 52 a1 3d 05 d4 e1 3f bf 76 93 3f 34 e2 ab 3e
       0.078770384 1.7642828 1.1520613 0.33571017
000030 36 0c 48 3e 80 9f 05 3f 43 47 2f 3f df 44 b0 3e
       0.19535908 0.521965 0.6846811 0.34427544
000040 52 88 13 3f 03 55 f2 3e 4f b2 90 bd 9d 19 10 3e
       0.57629883 0.47330484 -0.0706526 0.1407227
000050 65 bd 07 3e 96 33 ad 3e 42 0e 0d 3f ab 2d 52 3e
       0.13255842 0.3382842 0.5509988 0.20525233
000060 bf cb 43 3e a5 14 39 bd 0e 00 7c 3e
       0.19120692 -0.045185704 0.24609396

module.feature_extraction.block0.0.1.2.weight f4 [1, 1, 3, 3]
000000 d0 ee 18 3f 5b 2b 6d be 10 d5 23 3f cb 8b 0b 3f
       0.597394 -0.2316107 0.6399698 0.5451018
000010 72 de ae be 1c a2 07 3f 49 df 12 3f 5b 50 33 be
       -0.34154087 0.52981734 0.57371956 -0.17511122
000020 08 95 c7 3e
       0.3898089

module.feature_extraction.block0.1.1.2.weight f4 [2, 1, 3, 3]
000000 ac c7 94 3f a1 0c f9 3d ec 7d 9c 3d 0f 2a 74 be
       1.1623435 0.12160612 0.07641205 -0.23844169
000010 fc b0 47 be ec 5d a5 bd 65 6d 0e bf b8 c4 bc be
       -0.19501108 -0.08074555 -0.5563567 -0.36868834
000020 ef c3 1d 3d 20 be 7b bd 78 61 80 3e 5d 70 37 be
       0.038516935 -0.061460614 0.25074363 -0.17913957
000030 6c 99 b0 3c 96 85 bf 3f 35 a8 95 be 9c 03 ce bd
       0.021557532 1.4962642 -0.29229894 -0.10059282
000040 23 70 31 be 28 d8 92 3d
       -0.17327933 0.07170135

module.feature_extraction.block0.1.2.0.weight f4 [2]
000000 90 53 2c 3f 3f 33 10 3f
       0.67315006 0.56328195

module.feature_extraction.block0.1.2.0.bias f4 [2]
000000 0e 39 cc 3d 7b 4e 7f 3f
       0.0997182 0.99729127

module.feature_extraction.block0.1.2.0.running_mean f4 [2]
000000 9d c7 1c bd f1 f7 4d 3f
       -0.038276304 0.80456454

module.feature_extraction.block0.1.2.0.running_var f4 [2]
000000 7c 30 a5 3d 36 8e f9 3d
       0.08065888 0.12185328

module.feature_extraction.block0.1.2.2.weight f4 [2, 2, 3, 3]
000000 58 a2 3f 3e 7b d8 89 bd 00 1c 80 3e c2 dd 0d be
       0.18714273 -0.067307435 0.25021362 -0.13854125
000010 d8 b2 96 be b4 2b 8c bd aa bb 04 bf 4c 8b 12 bf
       -0.29433322 -0.06844273 -0.5184885 -0.572438
000020 7b ed e4 bd d7 56 a3 3d ff 93 99 be c1 96 a9 be
       -0.11178108 0.07975548 -0.29995725 -0.3312283
000030 ba 75 85 bf 96 a0 df bf c8 74 f9 be 2d ef 0e be
       -1.0426552 -1.7470882 -0.4872191 -0.13958426
000040 9d 29 32 be a4 bd 96 bb e8 38 4f bd 9c 3b f0 3c
       -0.17398687 -0.0046002436 -0.05059138 0.029325299
000050 55 de 51 bd d3 5a 09 3e 8d c2 9e 3e df 87 8c 3d
       -0.051237423 0.13413553 0.31007805 0.06861853
000060 f0 42 c8 3e 6e 3e 54 3f cf 26 cd 3e 8a d0 2c be
       0.3911357 0.8290776 0.4006867 -0.16876426
000070 ae 81 bb bd de 8e 84 3d fe 42 95 3f 6b 19 1a 3f
       -0.09155594 0.06472562 1.1661069 0.60195035
000080 67 9b 06 3d 73 bd eb be c3 d6 9c be 61 c0 b4 3b
       0.032863047 -0.46042976 -0.306326 0.0055160974

module.feature_extraction.blocks.0.1.0.weight f4 [2]
000000 d5 c6 d3 3e e6 3f fd 3e
       0.41362634 0.49462813

module.feature_extraction.blocks.0.1.0.bias f4 [2]
000000 9f fd 87 3f 15 e3 59 3f
       1.0624274 0.85112125

module.feature_extraction.blocks.0.1.0.running_mean f4 [2]
000000 ce 32 7a c0 b7 56 e5 3f
       -3.9093509 1.7917088

module.feature_extraction.blocks.0.1.0.running_var f4 [2]
000000 bc 6a 99 40 05 d0 c5 3f
       4.794279 1.5454108

module.feature_extraction.blocks.0.1.2.weight f4 [4, 2, 3, 3]
000000 e4 12 0a 3e 97 6f 2f 3e c7 c1 de 3d ea 94 af 3e
       0.13483769 0.17132412 0.10876804 0.342933
000010 fe b2 0e 3e 67 9c 3e 3e 1b fc 97 be 2b 0f 06 3f
       0.13935468 0.1861435 -0.2968453 0.52366894
000020 6e 07 9c be 9a 29 05 be cd 18 b8 bc 33 ff 1d bd
       -0.30474418 -0.13004151 -0.022472763 -0.038573455
000030 72 30 b4 3e 86 d3 fb 3f 80 89 9c 3d dd 43 27 bc
       0.3519321 1.9673927 0.076434135 -0.010209051
000040 d4 66 2e 3e 14 76 b9 3d eb 7a b8 3e 61 93 b7 be
       0.17031413 0.09055725 0.3603128 -0.3585463
000050 8d c7 b2 bd 77 48 98 bf af 96 04 c0 5a 4f 94 3d
       -0.087294675 -1.1897115 -2.071697 0.072416976
000060 8f 1c bd 3e 64 30 33 be 94 b0 41 bd 2a 18 cb bc
       0.3693585 -0.17498928 -0.04728754 -0.024791796
000070 52 04 da 3d b2 5c a4 bd 2a e5 b6 3c dc f2 43 3e
       0.10645355 -0.08025493 0.02232607 0.19135612
000080 d9 d5 9f bd a5 76 9f 3b b6 ce 50 bd cd b5 5f bd
       -0.0780446 0.0048664385 -0.050978385 -0.054616738
000090 00 a0 5d 3c 2f 8b 2c be 2e 06 9a 3d 0e 6d af 3e
       0.0135269165 -0.1684997 0.0752071 0.3426289
0000a0 c7 4f a5 3e 59 96 64 bd 53 a8 b8 be 7e d5 27 bf
       0.32287428 -0.055807445 -0.3606592 -0.6556014
0000b0 1a 2e 1d bd a4 59 d7 3c d1 12 f3 bc 30 4a 22 3c
       -0.038374044 0.026287861 -0.029672058 0.009905383
0000c0 32 d2 72 be 40 e1 d0 bf 81 2f 94 bc e5 6f 26 bd
       -0.23712996 -1.6318741 -0.018089058 -0.040634055
0000d0 57 d2 86 bd b7 b1 5f 3d d8 5a 7a bd ba ab 00 be
       -0.06583088 0.05461284 -0.06112179 -0.12565508
0000e0 53 84 22 3e ee 71 35 be bd 72 1d bf 91 be 1d bf
       0.1587079 -0.17719242 -0.615032 -0.61618906
0000f0 03 9e 21 3e d6 91 63 3f 81 1b b2 3e 1b 15 f2 bb
       0.15782933 0.88894403 0.3478661 -0.00738777
000100 16 18 18 bd 1c 75 3a bd 36 b9 b6 bd 0f 2d 1c 3f
       -0.037132345 -0.04552184 -0.08922045 0.61006254
000110 2c 49 cd 3e 07 91 00 bd 80 43 3a be dd 4e 89 be
       0.40094888 -0.03138831 -0.18189812 -0.2681798

module.feature_extraction.blocks.0.2.0.weight f4 [4]
000000 47 88 dd 3e 12 ca 49 3f 8b 0c b3 3f 20 4f 0f 3f
       0.43268034 0.7882396 1.3988203 0.5598011

module.feature_extraction.blocks.0.2.0.bias f4 [4]
000000 8d 9c c7 3e 27 f6 ae 3f 18 6e d5 be 5a 6e 4e 3e
       0.38986626 1.366887 -0.41685557 0.20159283

module.feature_extraction.blocks.0.2.0.running_mean f4 [4]
000000 14 63 49 40 7b 12 52 c0 4e 6b 0a c0 ee 84 6c 3e
       3.1466722 -3.282378 -2.1627994 0.23097584

module.feature_extraction.blocks.0.2.0.running_var f4 [4]
000000 7e af 7d 3f 53 08 d4 3f 29 08 74 3f 6f d7 fb 3e
       0.99095905 1.656504 0.9532495 0.491878

module.feature_extraction.blocks.0.2.2.weight f4 [4, 4, 3, 3]
000000 43 71 dd 3d ce 6a 89 be 50 5f af 3e 7b 0f 60 be
       0.108126186 -0.26839298 0.34252405 -0.21880905
000010 07 9d e9 be 07 ad e4 bd ca 7a 61 3d 83 0b a2 bd
       -0.45627615 -0.11165815 0.05504874 -0.07912352
000020 1b 06 bc 3d aa 08 e5 3d 36 e6 bd be a2 7d d7 be
       0.09180852 0.11183293 -0.370897 -0.42088038
000030 60 ab a7 bd 78 6e 02 3f 3d 6b f7 3e 16 f4 6a 3d
       -0.08186984 0.5094981 0.48324004 0.057361685
000040 9a 0c 11 3e 7b a3 f6 3c d0 13 48 3f cf c6 a1 3f
       0.14164963 0.03010725 0.7815523 1.2638797
000050 69 78 67 3f 79 21 22 bc 61 05 3b be 90 5f 16 be
       0.90418106 -0.009895676 -0.1826377 -0.14684892
000060 87 18 d5 bc 3c 81 55 bd 20 91 33 bd b5 27 91 bf
       -0.026012672 -0.0521252 -0.043839574 -1.1340243
000070 30 a3 bd bf 79 e3 d1 be e7 cb 10 3e ea 4a a4 bd
       -1.4815426 -0.4099386 0.14140283 -0.08022101
000080 5c 95 c2 3d 97 a1 52 3d 67 ac 87 bd 3a 9b 00 bd
       0.09501144 0.051423635 -0.0662468 -0.031398036
000090 3d 5b e3 be 8a 00 4b bf b4 20 ae be 6e 6d 1a 3d
       -0.44405547 -0.792977 -0.34009326 0.037702017
0000a0 f7 26 cc be 3b 41 48 be 10 ed 30 3c 8e 62 1d bd
       -0.39873478 -0.19556133 0.010798708 -0.038424067
0000b0 63 51 39 be 4e 5b 94 3d 01 9d a1 3d 61 6b b9 3d
       -0.18097453 0.072439775 0.07891274 0.09053684
0000c0 13 f4 a2 bd 9b da dd bf 9c 34 a2 be b3 17 93 be
       -0.0795671 -1.7332338 -0.31680763 -0.2872902
0000d0 85 88 90 bf 9e 2e 41 be f2 21 d5 3d de 3c 6e 3e
       -1.1291662 -0.1886544 0.10406865 0.23265406
0000e0 14 d5 f9 3d 95 60 37 3e 9f c4 0d 3f 44 19 74 3e
       0.121988446 0.17907937 0.55378145 0.23837763
0000f0 be d6 7a bd 0a 7b 33 bd 2f 44 b3 3c 1a 5b 1e be
       -0.06123995 -0.04381851 0.021883098 -0.1546444
000100 05 fb 53 be d3 99 36 3d 1b 4f a7 be 93 2e 87 be
       -0.20701225 0.044580292 -0.3267754 -0.2640272
000110 f7 e8 c0 3d b1 6b 5d 3e 9a e1 00 3e 47 e6 81 bc
       0.094194345 0.21623112 0.1258606 -0.015856875
000120 59 8e 93 3d 9a 3b e2 3e 4f 93 9b 3e ff 9c c6 be
       0.07204885 0.44186097 0.30385825 -0.38791654
000130 6c 08 66 bf 20 ab 76 be b5 a2 82 bd 54 25 dd bc
       -0.898566 -0.24088717 -0.0637869 -0.026995338
000140 f3 d3 8a 3d 20 c4 c5 bd b8 15 bd 3e f9 2b 5b be
       0.06778707 -0.096565485 0.36930633 -0.21403493
000150 ce c5 bb 3e e3 12 cf 3f a4 b9 2c 3f d8 c6 ac 3e
       0.3667435 1.6177639 0.67470765 0.33745456
000160 ad d0 f1 3e 88 89 5e 3b e8 b9 63 be 48 35 0f bf
       0.4722952 0.0033956487 -0.22238886 -0.55940676
000170 f1 61 71 3c 74 2e dc be c9 bd 79 bf 19 7d 31 bf
       0.014732824 -0.4300419 -0.97555214 -0.6933151
000180 0c 4e d9 bd d1 8f 47 be 12 e7 a7 bd 79 05 ae bc
       -0.106105894 -0.19488455 -0.0819837 -0.021242844
000190 0d d5 7b be 6c b3 7e 3c d9 5b 9f 3e 38 38 b4 3e
       -0.24592991 0.015545707 0.31124762 0.35199142
0001a0 da 97 b5 3d 80 93 8e bb 5d 86 84 bb 32 26 33 bc
       0.08866854 -0.0043510795 -0.0040443377 -0.010934399
0001b0 39 f1 25 3c 6f 02 4a 3f 46 99 20 be 7f c9 a0 3e
       0.010128313 0.78909963 -0.15683469 0.3140373
0001c0 1f e2 af 3e 94 8e 96 3e 4a 04 84 bc 0c 55 45 bd
       0.34352204 0.29405653 -0.016115326 -0.04817681
0001d0 c2 50 a3 bd 1a 08 19 be 4e 1c 9f 3e eb 95 fb 3e
       -0.07974388 -0.14944497 0.31076282 0.49137816
0001e0 1d aa 45 3d e5 5f 99 bf 73 27 44 bf a5 45 01 be
       0.048257936 -1.198239 -0.76622695 -0.12624224
0001f0 1d c7 da be d9 a8 27 3e a4 8d e8 be 56 ec bf bf
       -0.42730036 0.16373004 -0.45420563 -1.4993999
000200 a8 fc 0b bf 19 80 13 3e 46 01 c6 3e 44 de 15 3e
       -0.546824 0.14404334 0.38672847 0.14635569
000210 c5 bf 36 3d 86 62 05 bc 0a 99 a4 3c 28 63 e8 3e
       0.04461648 -0.008141166 0.020092506 0.4538815
000220 5f ca 13 3f 6a 17 43 3d b5 94 4e be fd a0 54 be
       0.5773067 0.04762975 -0.20173915 -0.20764537
000230 16 27 50 bd 31 e1 85 3d fe 52 89 bd f0 a4 33 3c
       -0.050818525 0.065370925 -0.06705283 0.010964617

module.feature_extraction.blocks.1.1.0.weight f4 [4]
000000 ee e4 c9 3e 95 b9 cb 3e 83 7f 01 3f ac b7 04 3f
       0.39432472 0.39790025 0.5058519 0.5184276

module.feature_extraction.blocks.1.1.0.bias f4 [4]
000000 97 76 33 3f e4 fc 81 3f cc d9 96 3f de 8d 8d 3f
       0.7010283 1.0155301 1.1785216 1.105892

module.feature_extraction.blocks.1.1.0.running_mean f4 [4]
000000 d8 65 bf 3f 12 31 94 c0 12 e8 94 40 cd d5 40 bf
       1.4952955 -4.63099 4.653329 -0.75326234

module.feature_extraction.blocks.1.1.0.running_var f4 [4]
000000 32 dd 16 40 7e c3 e5 40 07 fe 02 41 f5 f6 6a 40
       2.3572507 7.180114 8.187018 3.671323

module.feature_extraction.blocks.1.1.2.weight f4 [8, 4, 3, 3]
000000 59 04 a2 bd d6 f2 bc bd 04 cc 63 bc 52 04 62 bd
       -0.079109855 -0.09226005 -0.013903622 -0.0551799
000010 52 46 74 3f eb ee 99 3c a3 9b 6d 3d 1b 51 5b bc
       0.954198 0.018790683 0.058009755 -0.013386036
000020 3e 2a 98 bc ab 9e c9 3c 7e 49 b4 3e 85 05 e1 bd
       -0.01857483 0.024611792 0.3521232 -0.10987381
000030 83 55 aa 3d af 23 de bf ca 4e ee 3d 65 6f 4c bd
       0.08317091 -1.735464 0.116361216 -0.04991092
000040 8b 2e 62 be ae 6d 5b 3d fe 37 2e be e6 e2 2b bf
       -0.22088067 0.053571396 -0.17013547 -0.67143095
000050 83 3f 78 bd ab e8 97 be 6b 4e ac 3f 56 b0 5f be
       -0.060607444 -0.296697 1.3461431 -0.2184461
000060 a4 80 1c bc 27 bd 99 3d 81 19 06 bd 97 9f f2 bc
       -0.009552155 0.07506781 -0.032739166 -0.029617114
000070 c5 32 76 3e a0 e2 c1 3d b7 56 00 3e 97 61 08 bf
       0.24042805 0.094670534 0.12533079 -0.5327391
000080 27 31 6e 3d 3b 8e 1c 3d e7 c4 4d 3d 70 b0 ca bc
       0.058152344 0.03822158 0.05023661 -0.024742335
000090 c1 07 a4 bc a8 38 8b bc b3 ba 69 bc 14 2a 39 bb
       -0.020023229 -0.01699479 -0.014265704 -0.002825384
0000a0 d0 be 50 bf f7 08 20 bd 2f 62 cf bc cd 79 62 bd
       -0.81541157 -0.03907105 -0.025315372 -0.05529194
0000b0 a5 84 03 be 66 f1 c2 3c 94 53 96 3e 58 a3 e0 3c
       -0.12843569 0.023796748 0.2936064 0.027421638
0000c0 28 10 06 be 67 d5 a8 3e af 50 ee 3d 7d f3 ce bd
       -0.130921 0.32975313 0.11636483 -0.101050355
0000d0 42 22 ba 3d 02 a5 90 be 2b ec 1b be 78 4f 1a be
       0.090885654 -0.2825089 -0.1522681 -0.15069377
0000e0 a1 06 54 be 6c 6e 71 3e 38 62 e2 be 19 1f b9 3d
       -0.20705654 0.23577279 -0.4421556 0.090391345
0000f0 a2 65 fc bc d7 9e 94 3d 54 29 20 3e ef b9 84 bb
       -0.030810181 0.07256859 0.15640765 -0.0040504853
000100 69 c2 64 bd 75 fe 47 bd 7d 4f 1f 3e 27 86 1b c0
       -0.055849466 -0.048826654 0.15557666 -2.430063
000110 b2 4a 26 3e 53 65 cb bb 4e 4a 9d be c0 b3 d5 3d
       0.16239432 -0.006207147 -0.30720752 0.10434675
000120 18 6f ba 3a 7f 3f ec bd be 3b c7 bd 5c 3f ff 3d
       0.0014223782 -0.115355484 -0.09728192 0.12463257
000130 37 b7 cb be 5a d7 c8 bc 19 ad 5d bd a7 06 b1 bd
       -0.3978822 -0.02451675 -0.054120157 -0.08643847
000140 9f be ff 3c 1d 1e 51 be 55 38 16 3f c0 b4 31 3e
       0.031218825 -0.20421644 0.58679706 0.17354107
000150 8d b0 9e 3e d9 12 f9 bf f0 3e 81 be 65 2c 22 bc
       0.30994073 -1.9458877 -0.2524333 -0.00989828
000160 cc 06 2d bd 8d 41 53 3d 91 e8 28 3d 85 62 08 bf
       -0.04224281 0.051576186 0.041237418 -0.5327533
000170 08 25 88 be ea c5 fa bd 16 17 85 3f fa d4 63 3e
       -0.26590753 -0.1224478 1.039767 0.22249213
000180 d7 61 8f 3a 83 f1 85 3d ae c9 6b bd c6 da 4b bd
       0.0010939193 0.06540205 -0.057565384 -0.049769185
000190 a6 01 02 3d 64 e2 ce 3c 8d cb 27 be cb d3 a1 3f
       0.031739853 0.025254436 -0.16386242 1.2642759
0001a0 92 0c 79 3e 27 a5 31 bd 3f ae e6 bd 67 d4 b1 bc
       0.24321201 -0.043370392 -0.112637036 -0.021707727
0001b0 4b 6e 13 bd f6 dd 32 be 54 b7 8c bd 5d ff 80 be
       -0.035993855 -0.17467484 -0.068709046 -0.25194827
0001c0 86 9d b5 bf 6a 91 2c be 2b f6 db 3b b4 c9 b6 3d
       -1.4188697 -0.16852346 0.006712695 0.089251906
0001d0 4e 11 a8 bc af 49 ce 3e 5b 42 d2 be 8c d8 a9 3d
       -0.020516064 0.4029059 -0.4106625 0.08293256
0001e0 5e e2 3d 3e 76 3d 51 be 46 e1 65 be 5c bd 10 3d
       0.18543383 -0.20433602 -0.22449216 0.035336837
0001f0 f0 bc f2 bb 0e 4f ce 3d fd 9b 99 3c c8 8b b2 3e
       -0.007407777 0.10073672 0.018751139 0.3487227
000200 c2 81 de 3c f9 3d a8 be 8f 36 88 bf 9f 55 a9 bd
       0.027161483 -0.3285978 -1.064165 -0.08268284
000210 17 1c ee 3c db 21 f7 bc 8b ca a7 3c 0c 4d 28 bd
       0.029066129 -0.03016751 0.020482322 -0.041089103
000220 a8 94 d3 be 8d e9 3a 3d d2 ef ca be ee 46 88 bf
       -0.41324353 0.045632888 -0.39636093 -1.0646646
000230 b1 2d 35 be b8 4f 07 3d bf 34 a0 be 80 5e 35 38
       -0.17693211 0.03303501 -0.31290242 4.3241773e-05
000240 9c f7 5d 3d 4a 2b b2 bc bc 7e d2 bd ca ff 25 bf
       0.054191217 -0.021749157 -0.10278079 -0.6484343
000250 70 6e f5 bf d7 30 45 3e e3 69 2f be 24 2a 0f be
       -1.9174328 0.19256912 -0.17130236 -0.13980919
000260 84 7d b9 bd 01 89 d5 bd c0 f4 e0 be 6e d5 07 be
       -0.09057143 -0.10426522 -0.4393673 -0.1326501
000270 9d e5 84 3e 62 2f 25 be cb db c2 3e 62 01 01 3e
       0.2595643 -0.16131356 0.38058314 0.12598184
000280 9e c3 db bd dd 2d b9 bc ab a4 be 3e 8c fd 78 3e
       -0.107306704 -0.022604877 0.37235007 0.2431547
000290 c5 dd ce 3d 1b a7 05 bd a1 a0 b6 be 51 14 e2 bd
       0.10100893 -0.032630067 -0.35669425 -0.11039031
0002a0 68 20 c9 bd 42 99 81 bd bb 3a a9 bd 07 ca c1 bd
       -0.09820634 -0.0632806 -0.08263155 -0.09462362
0002b0 2a f8 1b bf 6e 2c a6 be 7d 78 9f be ec d0 8d be
       -0.60925543 -0.32455772 -0.31146613 -0.27698457
0002c0 5c 17 65 be 1d 86 a1 bb 61 4b e3 bd 2f 40 d5 3d
       -0.22372192 -0.0049293176 -0.11098362 0.10412633
0002d0 2f c2 37 bd 13 3a b7 bd 32 97 a8 bc 27 e2 0e 3e
       -0.044862922 -0.08946624 -0.020579908 0.13953458
0002e0 ca f7 8b bf ef f2 48 be b4 b5 96 3c 1b 0c c3 3d
       -1.0934994 -0.19623922 0.01839719 0.09523793
0002f0 ab 85 94 3c 0e 9b 83 3d 82 22 fc be 0f 0d f5 bb
       0.018130144 0.06426059 -0.49245077 -0.0074783633
000300 d6 b1 10 be 7a 22 4a 3f 86 b5 32 3e 91 c9 04 3e
       -0.14130339 0.7895886 0.17452058 0.12967516
000310 4c 80 70 bd ee bc 79 3d 36 33 3c 3e c2 b0 04 3e
       -0.058716103 0.060971193 0.1837891 0.12958053
000320 7e 0d b3 3e d3 66 55 3d 20 b3 e2 bf 8d 2a cd be
       0.3497123 0.052100014 -1.7710915 -0.40071526
000330 b1 1c 91 bd 13 5a 19 bf e9 fc 9b bc c5 6a 15 3a
       -0.070855506 -0.5990307 -0.019041495 0.0005699809
000340 ae 9d 83 bd 0f 87 9d bd 71 aa 43 be d2 09 6f bc
       -0.064265594 -0.07691776 -0.19107987 -0.014589744
000350 c5 06 30 be 5c bf cb bd b3 60 f2 be 4d 7b b9 bd
       -0.17190082 -0.09948608 -0.473394 -0.09056721
000360 ef 67 a0 bd 3d cd 36 be 21 20 54 bc 7e b1 74 3e
       -0.07832324 -0.1785173 -0.012947113 0.23895833
000370 02 3d 04 3d 42 95 f2 3c f8 8b b2 bd 58 10 ae bd
       0.032284744 0.029612187 -0.08718103 -0.08499211
000380 a3 e2 cb bc f3 86 00 be 16 d2 82 be 51 1a 0d be
       -0.024888342 -0.12551479 -0.25550908 -0.1377957
000390 68 b3 d8 3d 8b 9c 93 3f bb 1e 64 3d de 9a 06 be
       0.10581094 1.1532148 0.05569337 -0.13145015
0003a0 4d a4 62 3e c4 5b d1 bd 45 54 3f be b2 4d 70 bf
       0.22132988 -0.10222581 -0.1868449 -0.93868554
0003b0 9f 30 5d bd eb e2 8d 3d 86 7f 62 bf 37 c0 5c 3e
       -0.054001447 0.06928047 -0.88475835 0.21557699
0003c0 a5 10 33 3e f8 71 b2 be 7d ad d2 3d 47 ea d4 bc
       0.17486818 -0.34852576 0.102869965 -0.025990618
0003d0 48 b1 20 3e e5 ee 30 bc 30 f4 ee bd 48 81 fc 3f
       0.15692627 -0.010799144 -0.11667669 1.9726954
0003e0 e4 48 1b be 68 6b 5f bd ae 0c d8 bd 47 1d a4 3b
       -0.15164524 -0.05454579 -0.105492935 0.005008373
0003f0 53 59 93 bd b8 1e 91 3e 30 a6 a1 3d 1f e0 68 3c
       -0.071947716 0.2834375 0.07893026 0.014213591

module.feature_extraction.blocks.1.2.0.weight f4 [8]
000000 5e f4 46 3f 4d 98 01 3f fb 97 1c 3f c2 8c 53 3f
       0.77716625 0.5062302 0.61169404 0.82636654
000010 82 64 d0 3e 72 6e 5b 3f d9 19 53 3f 71 13 f5 3e
       0.4070168 0.857154 0.82461315 0.47866395

module.feature_extraction.blocks.1.2.0.bias f4 [8]
000000 ba 0f c2 3f 7b 36 38 3f 50 6f b3 3f 2c 59 7e bf
       1.5161049 0.7195813 1.4018345 -0.99354815
000010 73 6d 4a be 68 35 33 bf dc bd 4a 3f 63 90 46 3f
       -0.19768314 -0.70003366 0.7919595 0.77564067

module.feature_extraction.blocks.1.2.0.running_mean f4 [8]
000000 ac 88 70 bf 31 7c 64 c0 a8 15 76 3c 9b 0d a9 c0
       -0.93958545 -3.57008 0.015019812 -5.282911
000010 7f a9 85 c0 58 c1 81 c0 05 09 01 3f b2 59 f0 3f
       -4.1769404 -4.0548515 0.5040439 1.8777373

module.feature_extraction.blocks.1.2.0.running_var f4 [8]
000000 a0 0b 98 3f ce a4 ae 3f 60 36 37 3f f4 a5 8c 3f
       1.1878548 1.3644044 0.71567345 1.0988145
000010 b5 12 ec 3f 26 e5 09 40 8d 0f 44 40 ad 69 d9 3e
       1.8443209 2.154611 3.0634491 0.42463437
