checkpoint/kitti2012_ck/checkpoint.tar (torch_old, 583981 bytes, 300 tensors)

module.refine_spn.0.0.weight f4 [16, 3, 3, 3]
000000 ec a8 91 be 06 6b de bd 30 b3 4d 3e 60 49 a2 3c
       -0.2844919 -0.10860257 0.20087886 0.019810379
000010 47 7a c7 3e 25 17 88 3e cc fb 17 bf 62 99 06 be
       0.38960478 0.26580158 -0.59368587 -0.13144448
000020 2f dd 30 3e 71 a9 a8 3e d9 a8 32 3e b5 b2 e2 be
       0.17271875 0.32941774 0.17447223 -0.44276968
000030 a9 ee 09 3e ba b2 15 3f b9 57 7b bd 4b ce 8c be
       0.13469948 0.5847584 -0.061362956 -0.2750114
000040 99 f0 e9 bd 05 4f 9c bc 5d eb d1 3d a8 d0 64 be
       -0.114228435 -0.019080648 0.1024997 -0.22345221
000050 0e e5 9f be d7 d8 c0 3c 40 87 67 3e 21 4e df bd
       -0.31229442 0.023540897 0.22610188 -0.10903574
000060 f9 ba 0c bd a3 6b 01 3e 03 77 44 bd 73 54 26 3d
       -0.034358 0.12638716 -0.04796506 0.04060788
000070 29 56 a5 3d e4 30 dd bc 59 cd 1c bc b3 49 83 3e
       0.08073074 -0.027000852 -0.009570443 0.25642166
000080 7e 8b a9 3e b8 b2 81 3c af 80 0c bf 7f 96 95 be
       0.33114237 0.01583229 -0.54883856 -0.29216382
000090 1e 4d e1 bd c0 4a 22 3e 07 fd 53 3e 23 1b 77 3e
       -0.11001037 0.15848827 0.20701991 0.24131446
0000a0 51 da 0f 3e a0 8f 4f 3e 06 1f 88 bd 6e 65 ba be
       0.14048125 0.20269632 -0.06646542 -0.3640551
0000b0 a2 25 e0 be 90 49 83 bd 2e a6 6d 3d 8f a2 90 3d
       -0.43778712 -0.06410515 0.05801981 0.070622556
0000c0 60 ff 09 3e f1 12 c4 3e e4 1d d5 3e fc bb b4 bd
       0.13476324 0.382957 0.41624367 -0.08824918
0000d0 b4 aa e8 be 26 da 27 be b9 82 8f 3e 2f 00 a4 3e
       -0.45442736 -0.16391811 0.2802942 0.3203139
0000e0 15 1d 89 3d 23 4c e7 3d 45 dc 09 3e 5d 02 85 bd
       0.06695 0.11293819 0.13462932 -0.064945914
0000f0 a5 93 aa 3c d8 83 c6 be 0e 6c 00 bf c6 5e 46 be
       0.020822356 -0.38772464 -0.5016488 -0.1937209
000100 a9 2c a4 be ff 32 b4 3e 4c d2 f0 be 8a 33 47 be
       -0.32065323 0.35195157 -0.47035444 -0.19453254
000110 30 f2 ff 3e 54 37 b8 be 86 9f d2 3d 45 71 ea 3e
       0.49989462 -0.35979712 0.10284333 0.45789543
000120 5e 90 86 be 91 05 a5 bd e3 28 10 bf 89 d8 da 3e
       -0.26282018 -0.08057702 -0.5631239 0.42743328
000130 91 c0 80 3d 25 81 12 bf 80 f1 10 3f bb a8 e9 3e
       0.06286729 -0.5722831 0.566185 0.45636544
000140 2a 37 0e 3e d5 1d 70 be 81 0d 7d 3d 30 52 2f 3e
       0.13888231 -0.2344888 0.061780456 0.17121196
000150 ec ef 13 3e be 5e f1 be 92 81 e9 3e f7 7a 56 bc
       0.14446992 -0.47142595 0.45606667 -0.013090841
000160 99 4f 21 bd 24 85 c9 3d a1 c2 05 3d 2a a7 51 3e
       -0.03938255 0.09839848 0.032656316 0.20473924
000170 30 d2 a4 bd 9e 5e 63 3e 2b 95 1a bf 0b 26 56 3e
       -0.080479026 0.22204062 -0.6038386 0.2091295
000180 f1 28 7c bd 57 4c 84 be 66 b8 6e 3e 0f e0 6a 3d
       -0.061562482 -0.25839493 0.2331253 0.057342585
000190 3f 36 f5 3d bb 89 9a be 29 d4 f6 3e 82 cb bf be
       0.11973237 -0.30183205 0.4820874 -0.37459952
0001a0 db 99 d9 bd 31 d4 9c 3e 84 5b cd bd 00 35 34 be
       -0.10625049 0.3063064 -0.10027221 -0.17598343
0001b0 f2 95 d5 3d 2e 0f 91 3e 57 7e 3e 3e 06 7c 03 bd
       0.104289904 0.28331894 0.18602882 -0.0321007
0001c0 32 3e df 3b 88 db 8e 3d 46 f8 a6 be bb 9d 6d be
       0.006812834 0.06975466 -0.32611293 -0.232047
0001d0 44 ab 0b be 4a 88 c8 be 14 24 03 bf 24 59 a5 be
       -0.13639551 -0.3916648 -0.51226926 -0.3229457
0001e0 12 4a 0d 3e f7 63 04 bc 41 c9 e3 be 3a e0 31 3f
       0.13797787 -0.008080474 -0.44489482 0.6948277
0001f0 d8 03 1c 3f 43 b2 de 3e 6c ec 95 3c 01 c5 09 3f
       0.60943365 0.43495378 0.018301211 0.5381623
000200 b3 d4 36 3e 59 8e 4a 3e 9d e2 1b 3b 93 c1 b4 3d
       0.17854576 0.19780864 0.0023786195 0.08825984
000210 d6 30 fa be 1b 85 1e bf 4f cb 18 bd 2a a2 92 be
       -0.48865384 -0.6192185 -0.037303265 -0.28639346
000220 2a c2 90 be 6a 0f f2 be 2a 74 12 3c 8f 92 fd bd
       -0.28273135 -0.47277385 0.0089388285 -0.123814695
000230 cd 54 e6 be 04 30 45 3f f6 b4 62 3f f3 44 85 bd
       -0.44986573 0.7702639 0.88557374 -0.06507292
000240 8e d5 7d 3d be 29 62 3e 3f 88 0b 3f a2 b9 a4 be
       0.06197124 0.22086236 0.5450477 -0.32172877
000250 8e e0 55 3d 8c 1e df 3e 22 29 25 bf d6 05 a2 be
       0.052216105 0.43577993 -0.6451589 -0.31645077
000260 aa 48 96 3d ed 65 66 3e 6e fa 4b 3d df 85 ce bd
       0.07338078 0.22499819 0.049799375 -0.10084128
000270 5b 87 c2 3e e2 9f 0b 3e 92 ff 1f 3d c1 22 29 be
       0.37993893 0.13635209 0.03906209 -0.16517164
000280 c5 d1 20 bf bc 5c 15 bd 17 11 38 3e e2 ad 8b bc
       -0.6282008 -0.03646539 0.1797527 -0.017050687
000290 a7 e6 a1 3d 77 7b ff bd c7 53 16 3e 1d b4 dd bd
       0.079053216 -0.12474721 0.14680396 -0.108253695
0002a0 47 dd 45 3d 42 d9 05 be d4 1b f1 3d 5d 63 fb 3c
       0.04830673 -0.13071159 0.11772886 0.030687029
0002b0 04 c8 e3 bd 67 a3 44 3d f7 83 d2 bd 53 4b 23 3e
       -0.11122134 0.048007395 -0.102790765 0.15946703
0002c0 9a 8f 47 bd b9 13 f2 3d 6f b3 33 be 9e 31 9c bd
       -0.048720933 0.11820168 -0.17548917 -0.07626651
0002d0 c9 3a 70 3e 3f 81 04 be f8 30 9c 3d 31 cd 49 3a
       0.23459925 -0.12939928 0.076265275 0.00076981174
0002e0 f4 57 4c 3e 89 dd be bd 53 22 6c 3d 98 6b 69 be
       0.19955426 -0.09319598 0.05764992 -0.2279495
0002f0 19 2d 9a 3e 6f 5e 5e be 9a fe 44 be 0f 3b fe bd
       0.30112532 -0.21715711 -0.19237748 -0.12413608
000300 b5 c3 2a 3e 4c 39 a0 be 76 11 64 3d 55 03 8d bc
       0.16676219 -0.31293714 0.055680715 -0.017213503
000310 8b 8f 5d be 41 75 43 bd 96 65 1a 3e ff 22 c1 3e
       -0.21636789 -0.047719244 0.15077814 0.37722012
000320 9f 89 cd 3d 76 1d ba 3e b1 b1 26 3e ef d7 60 3d
       0.10036015 0.36350602 0.16278721 0.05489343
000330 8f 78 95 3e cd 32 74 3e 0b ba e1 3e e6 a0 72 be
       0.2919354 0.23847504 0.44087252 -0.2369419
000340 58 54 02 be 0f 0c fb bd ea 7c 83 bc e3 c1 d4 bd
       -0.12727487 -0.12258159 -0.016050775 -0.103885435
000350 1b c9 10 be a0 99 80 be 93 2f 6a be f6 52 2e be
       -0.14139216 -0.25117207 -0.2286971 -0.17023835
000360 a7 85 1d be c9 ae c1 bd d0 e4 0a 3e 4a 11 11 bf
       -0.15383016 -0.09457166 0.13563848 -0.56667006
000370 ab 71 0f be d9 c6 2b 3f 13 8c c2 bd f6 54 8d 3d
       -0.14008205 0.6710029 -0.09499373 0.06900971
000380 30 cb 5e 3e e3 b4 b5 3d c4 46 9b 3c a6 09 82 3d
       0.21757197 0.08872392 0.018954642 0.063494965
000390 70 cd e4 be e3 07 0c 3d 65 66 ab 3e 53 93 de 3d
       -0.44687986 0.03418721 0.33476558 0.108679436
0003a0 65 18 da 3c 86 eb 94 be 48 ab 85 be ac 87 80 be
       0.02662296 -0.2908594 -0.2610724 -0.2510351
0003b0 d0 50 03 3f 38 6b d7 be b6 89 ab bd 8a 5a b5 3e
       0.51295185 -0.4207399 -0.08375876 0.35420638
0003c0 58 b0 56 be ae ee 92 3e e1 20 ae 3d de 06 09 3e
       -0.20965707 0.28697723 0.08502365 0.13381526
0003d0 cf ba c1 3c 6b f0 f6 3e 00 dd 4f be d2 fb a8 be
       0.023648648 0.482303 -0.20299149 -0.33004624
0003e0 1c 94 a9 bc 22 0b a9 3c 61 7f ed 3a a8 64 b1 bd
       -0.020700507 0.020635191 0.0018119627 -0.08661777
0003f0 8d 27 90 3d 8b bf 85 3e e9 73 8f 3e de a0 12 be
       0.07038794 0.26122698 0.2801812 -0.14319178

module.refine_spn.0.2.weight f4 [16, 16, 3, 3]
000000 a4 e8 db bd 56 ec 79 3d a4 71 0c 3d 04 95 ba 3d
       -0.10737732 0.061016403 0.034288064 0.09110454
000010 57 8b ff 3d f0 9a 94 3e 4d 2b ee be 19 87 ee bd
       0.12477749 0.29024458 -0.4651741 -0.116468616
000020 a7 32 1e be 70 60 70 3e 61 4f f0 3d 97 f7 08 3e
       -0.1544901 0.23474288 0.1173389 0.13375698
000030 95 ea 69 3e e3 1f 60 3d 9e ff 71 3e f9 72 c1 3d
       0.22843392 0.05471791 0.23632666 0.094457574
000040 9e d2 30 3b af c4 c0 3d 34 bc 8f 3f 1d 56 7d 3f
       0.0026981006 0.094125144 1.122931 0.98959523
000050 aa ac 04 3e d4 0e 14 3f 5a b8 43 3f 17 a2 91 3e
       0.12956491 0.57835126 0.76453173 0.28443977
000060 6a 34 5b be 3a ef f6 bd 02 df e4 3c 1e d7 ec bb
       -0.21406713 -0.120573476 0.02793837 -0.0072277924
000070 6a a0 48 3d e2 30 14 be b9 0d a5 bd c5 29 3b 3d
       0.048981108 -0.14471772 -0.08059258 0.04569413
000080 2f a0 03 be 8a ae 1e be 40 ac 7a bd bb 87 08 be
       -0.12854074 -0.15496269 -0.061199427 -0.13333027
000090 4c 96 86 3f db c6 4e 3f fa 21 53 3f ed ac eb 3e
       1.0514617 0.8077218 0.8247372 0.4603037
0000a0 21 fe 4c 3f 1f 43 0e 3f ce 56 86 be 68 d9 61 3d
       0.8007527 0.5557117 -0.26238102 0.055138975
0000b0 fa 6f a0 bd 0f 68 30 3f c8 bd 38 3f bc bd 4a 3e
       -0.07833858 0.6890878 0.72164583 0.1979894
0000c0 57 6c 87 3e 23 8e 1b 3f a1 a7 37 3e 75 6a 0c be
       0.26449844 0.6076376 0.17935039 -0.13712485
0000d0 50 7e 64 bd 73 90 20 bc df a0 b6 bd c4 04 1b ba
       -0.055784523 -0.009800064 -0.089174025 -0.0005913491
0000e0 f7 a0 9b 3b fd 74 01 be 34 da 96 bd c8 82 cb 3d
       0.004749413 -0.12642284 -0.07365838 0.09937054
0000f0 f5 c1 8c be b1 d7 71 be 7a 68 e4 bc b6 32 df be
       -0.27491727 -0.23617436 -0.02788185 -0.43593377
000100 28 ac 90 be 9e 19 31 be b8 9a 81 be 46 28 2b be
       -0.28256345 -0.17294928 -0.25313354 -0.16714582
000110 09 b7 78 be 3f 55 0b 3e 8d e4 69 3e c0 50 c1 bd
       -0.24288572 0.13606738 0.22841091 -0.0943923
000120 af d3 60 3e 5d 90 1a 3e cc 3f 38 3e 98 2c cd 3d
       0.21955751 0.15094133 0.17993087 0.10018271
000130 16 64 7b 3e d2 06 14 3c ae 13 ff ba cd f4 8f 3c
       0.24549899 0.009034829 -0.0019460821 0.017572785
000140 5b 54 80 bd 78 0e 99 3d 04 f1 82 bd 81 2c 30 be
       -0.062660895 0.07473463 -0.06393626 -0.17204477
000150 fe fe fe 3c fc 3e 45 bd 71 28 11 bd 86 c4 3d bd
       0.03112745 -0.04815577 -0.03543896 -0.046329997
000160 32 f3 72 3a a0 01 55 3d 82 a4 8b be 49 72 a1 bc
       0.00092678063 0.052003503 -0.27273947 -0.019707816
000170 e2 bd 48 be fe 54 01 be 8d e6 e0 bc ad c6 10 3e
       -0.19603685 -0.12630078 -0.027453685 0.14138289
000180 f0 a2 65 bc 9b b4 56 3e 57 52 f9 3d 50 bf 53 3f
       -0.014015898 0.20967333 0.12173908 0.82713795
000190 8e 5a c9 3e a3 d2 8c be a6 43 a1 3e a7 fe 96 3e
       0.393269 -0.27504453 0.31496924 0.2949116
0001a0 c3 dd 04 3e fc 16 68 3e 18 49 06 be 4a 8c b5 be
       0.1297522 0.22665018 -0.1311382 -0.35458595
0001b0 30 33 f1 bd 4d 01 53 bd 7b de b7 bd 8d 17 fc 3a
       -0.11777341 -0.051514912 -0.08977982 0.0019233093
0001c0 80 af 87 3e 76 ec 2a 3e fb 4c 9d be d9 83 0b 3e
       0.26501083 0.16691765 -0.30722794 0.13624515
0001d0 b2 26 ff 3d 18 43 21 3e 06 3c 6f 3d 06 db b2 3d
       0.124585524 0.1574825 0.058406852 0.08733182
0001e0 cf a7 b2 3e fc ea 8b bd 33 5d 56 be fc cb 57 be
       0.34893653 -0.06831929 -0.2093399 -0.21073908
0001f0 78 91 e9 be 70 f2 3b be 18 74 3f 3f a2 2e 3d 3f
       -0.45618796 -0.18354201 0.7478652 0.7389928
000200 ac 75 e1 3e f5 db 58 3f a7 83 25 3f b2 d6 d6 bd
       0.4403509 0.8471063 0.6465401 -0.10490169
000210 6c f3 a8 be a5 4a 0d bf 76 ba cd be 67 56 1d bf
       -0.32998216 -0.55192024 -0.4018132 -0.61459965
000220 4e 99 a4 be 7f 31 bb 3d e5 e1 ae be 72 d6 07 be
       -0.32148212 0.091403 -0.3415672 -0.13265398
000230 be 82 8a 3e f7 1c 8a bd be 3b 8a 3e d4 5e a4 3e
       0.27052873 -0.06743806 0.26998705 0.32103598
000240 16 00 93 be 8c 79 d5 3d 0a 63 88 3e 42 d1 90 be
       -0.28711003 0.10423574 0.2663806 -0.2828465
000250 12 8a 44 3e 28 54 08 3e db b0 35 be b0 a1 6b 3e
       0.19193295 0.13313353 -0.17743246 0.23010898
000260 78 b8 90 3e a6 fa c5 bd 16 f5 bc bd f5 d4 2a bd
       0.28265738 -0.09666948 -0.09226434 -0.041706998
000270 df b4 c1 be a3 2e 55 be d2 95 4e bd 08 08 9e be
       -0.37833306 -0.20818572 -0.05043585 -0.30865502
000280 b2 2a c5 bd ec 49 32 3d e0 dd cf be 46 7b 9f 3e
       -0.09627284 0.04352753 -0.40598965 0.31148738
000290 51 66 60 3f bc 79 d5 be 5e 82 8b 3e fa 09 21 3f
       0.8765612 -0.41694438 0.272479 0.6290585
0002a0 ab d9 e4 bc 4a 28 9e 3e 70 8c a3 3e 50 ce c9 ba
       -0.027935823 0.30890113 0.31943083 -0.0015396569
0002b0 9a 40 ab 3e b3 99 9f 3e bd da f5 3d 29 21 e4 3e
       0.33447725 0.3117195 0.12004612 0.4455655
0002c0 a3 73 7d 3e a8 1f 30 bd bc 23 83 3e 4d 1a c4 3e
       0.24751143 -0.04299894 0.256132 0.38301316
0002d0 fd 6a b4 be 3d 43 54 3e 43 80 47 3f 3d 1f 9f be
       -0.35237876 0.20728774 0.77930087 -0.3107852
0002e0 54 33 92 3d 2a 9c 82 3e 32 e3 e6 bd 66 51 66 3c
       0.07138696 0.2550977 -0.11273803 0.014057493
0002f0 b5 a6 25 3f 5c ff 68 bf 59 40 fd 3e 6d 08 1f 3f
       0.647075 -0.9101465 0.49463156 0.6212223
000300 d6 a6 0b bf 4c d8 37 3d 67 c8 98 bc 34 46 db be
       -0.54551446 0.04488401 -0.018650247 -0.42826998
000310 79 3f 37 bd b2 38 d9 3e 0c ff 48 3d 68 62 18 3c
       -0.044738267 0.42426068 0.049071357 0.009300806
000320 db c1 2d 3e 35 1d 65 be f6 be 56 3b 09 29 e8 bc
       0.16968481 -0.22374423 0.003276763 -0.02833988
000330 05 31 68 be a6 6f 8e be 94 c1 3e be 7f ce 89 be
       -0.2267495 -0.27819556 -0.18628532 -0.26915357
000340 e5 95 c5 be 95 d2 80 be 6d ab ce be d9 65 5a bc
       -0.38590923 -0.2516066 -0.40365162 -0.013329946
000350 6d bb d1 be fd 4a bc 3d 07 82 a1 3d 22 aa 91 3e
       -0.40963307 0.091939904 0.07886129 0.28450114
000360 3d 83 bf 3d 0b 6b c6 3e 57 0a 1e 3f fe 15 13 be
       0.093512036 0.38753542 0.6173453 -0.14363858
000370 22 de ee bd 2f 3e 6d bd 96 51 35 be b6 3f a8 3e
       -0.11663462 -0.05792063 -0.17706904 0.32861108
000380 25 99 a3 3e 28 b5 a0 be cb c2 79 3d f5 08 80 3d
       0.31952778 -0.3138821 0.060976785 0.062517084
000390 05 43 fe bd ed db 18 3e 00 dd 80 bd d9 39 d8 3c
       -0.12415127 0.14927645 -0.062921524 0.026394771
0003a0 5b 94 64 3e dd 32 cf bd 80 09 2b be 9d 57 87 be
       0.22322218 -0.10117123 -0.16702843 -0.2643403
0003b0 a7 f2 dc bd d7 51 46 bd 77 eb 0c be 6d ef 4c bd
       -0.1078847 -0.048417892 -0.13761698 -0.05003302
0003c0 8b a6 cb bd f2 77 d4 be e7 27 8f be bc cd 0e be
       -0.09943875 -0.4149776 -0.2796013 -0.13945669
0003d0 16 5b 06 3f ea fd 40 3f fc ac fc bc d8 a5 a0 3e
       0.52482736 0.7538744 -0.030844204 0.3137653
0003e0 25 e4 0c 3f ad 37 cd bd 44 47 c0 3d 47 5f 39 3f
       0.5503562 -0.10020385 0.09388593 0.72411007
0003f0 a3 ec b3 be 7f f3 c3 bd a6 a7 94 3e a0 e0 2e 3e
       -0.35141477 -0.095679276 0.29034156 0.17077875

module.refine_spn.0.4.weight f4 [16, 16, 3, 3]
000000 bc 1f d5 bd fc 84 c2 be bf c8 43 be 26 0d a4 3e
       -0.104064435 -0.37992084 -0.19119547 0.3204128
000010 26 01 8b be 77 0b 9b be 0e 50 60 3e e9 da 07 3e
       -0.27149314 -0.30282184 0.21905538 0.13267101
000020 11 57 75 3e a3 f3 24 3e e9 95 ec 3e b9 00 0a 3d
       0.23958994 0.16108565 0.46208122 0.033692095
000030 9a bf a0 3d 90 14 5e 3d 61 e2 88 bb 2d ff 97 3e
       0.07849045 0.05421883 -0.004177377 0.2968687
000040 ce 9d 31 bb dc 57 1e 3e ea 08 5e 3e 5c 89 27 3e
       -0.0027102116 0.15463203 0.21683088 0.16360992
000050 81 c0 df 3d bf 18 16 3e b0 d7 a6 3a 11 30 37 3e
       0.10925389 0.14657877 0.0012729075 0.1788943
000060 b3 ec 25 3e 26 3f 7f 3e a2 b4 aa bd 43 c7 52 bf
       0.16203575 0.24926433 -0.08335234 -0.823353
000070 b5 dd e9 be d5 26 59 be 24 99 06 3e c3 32 88 bd
       -0.45676962 -0.2120622 0.13144356 -0.06650307
000080 82 13 3b 3e a6 21 26 bd ae 13 cf 3c a1 fa bb 3e
       0.1826916 -0.040559433 0.025277939 0.36714652
000090 55 d5 69 3d 71 68 10 3f bf a7 48 3f 2f 7f a4 be
       0.057088215 0.56409365 0.7838096 -0.32128283
0000a0 e9 28 0e 3e 85 ec 81 3d fa 97 81 be f7 ac 75 be
       0.13882793 0.06343941 -0.2531126 -0.23991762
0000b0 61 bb c0 be 2d bb c3 be 6e 46 ad be 1c ac 8e be
       -0.3764296 -0.3822874 -0.33842796 -0.27865684
0000c0 55 32 09 be 94 85 85 3d 48 22 74 3d 5a 86 d8 bc
       -0.13398106 0.06519619 0.059603006 -0.026431251
0000d0 be 0d 62 be 30 df 13 3d 2b e8 c8 3d d5 cc 62 3e
       -0.22075555 0.03610152 0.098099075 0.2214845
0000e0 b7 43 28 3e eb cf 16 bd e3 4f 0e be 04 83 a6 bd
       0.16432081 -0.03681938 -0.13897662 -0.08130458
0000f0 da d7 a0 3e 3f e9 88 3c 50 72 bb 3c 1e bd 96 3d
       0.31414682 0.016712783 0.022881657 0.0736029
000100 02 09 0a 3e d3 5b f0 3d 21 8c 40 be a6 3d 9a 3e
       0.13479999 0.11736264 -0.18803455 0.3012516
000110 f3 03 02 3d 67 0d d4 be 82 ed bd be 17 21 55 bd
       0.031742048 -0.41416475 -0.37095267 -0.05203351
000120 2b ff a1 bc 13 a7 6c be 85 22 94 bd 4f 39 cd 3e
       -0.019774994 -0.23110609 -0.072331466 0.40082785
000130 3c db 4a bc f8 b8 d9 bc bf 05 08 3e e7 f3 55 bd
       -0.012381371 -0.026577458 0.13283442 -0.052234557
000140 d0 f8 0c 3e 15 58 a5 bd a6 59 83 3e d3 7e 37 3d
       0.1376679 -0.08073441 0.25654334 0.044798683
000150 df 82 f2 3c 09 06 28 bd f2 a8 18 bd 00 5e 9e bd
       0.02960342 -0.04102138 -0.037270494 -0.07732773
000160 1b dc 92 3d 7d 78 1b 3e 45 84 84 3d 09 dc 55 3e
       0.07170888 0.15182681 0.06470541 0.20884718
000170 67 60 46 3e ac d8 a7 bc 0f f7 4f 3e 0e 3b 36 3c
       0.19372712 -0.02048906 0.20309089 0.011122478
000180 e2 57 a0 be af aa d6 be f1 b1 26 be fe ea 91 3e
       -0.3131705 -0.41927096 -0.16278817 0.28499597
000190 12 70 89 bd c6 f5 66 3d a9 3f 9e 3d d6 91 8b bd
       -0.06710829 0.05638673 0.07726986 -0.068149254
0001a0 fd 07 3d 3c 4b b9 b3 be 47 ea 20 be 34 2b 94 be
       0.011537549 -0.35102305 -0.1571437 -0.2893921
0001b0 96 9c 95 3d 1a 70 4e 3e 14 4d e4 3e cc f7 49 be
       0.07305257 0.20159951 0.44590056 -0.19723433
0001c0 a3 d2 2f 3e b8 45 99 3d 37 ae aa be 5b f7 90 be
       0.17170195 0.07484001 -0.3333604 -0.28313717
0001d0 24 bb c8 be bb f5 91 3d 65 ed 36 bf 4b 4e 7b bd
       -0.39205277 0.071269475 -0.71455985 -0.061353963
0001e0 25 1e e0 3e 4e da 33 bd 72 fd 32 be 2c a6 ac 3e
       0.43772998 -0.043909363 -0.17479494 0.3372053
0001f0 6e 01 4f 3e 7b 0a 6a 3e cf 82 61 bd 88 88 57 be
       0.20215389 0.2285556 -0.05505639 -0.21048176
000200 34 9d 4f bf 4f 81 0a 3e b4 3e f4 3d 82 32 04 bd
       -0.8109925 0.1352589 0.11926022 -0.03227473
000210 df dd 47 3d e2 3c d2 3d 22 6b 76 3e aa 0f 7a be
       0.048795577 0.10265519 0.24064305 -0.24420038
000220 d7 6f c3 be fb 41 a7 be 6e f7 0f be 4e e4 5d be
       -0.38171265 -0.32667527 -0.1405923 -0.21669123
000230 5e f8 04 be 4c 46 4c 3e 9a 3f 21 be cf 36 7a be
       -0.1298537 0.19948691 -0.15746918 -0.2443497
000240 df bf a7 3e 3a 77 87 3e 75 72 c7 3e ae 6e 6d be
       0.32763574 0.2645815 0.3895451 -0.23186752
000250 93 52 e6 bd fa 5d 9c 3e 8a 1a a3 bd 41 1c e4 be
       -0.112462185 0.30540448 -0.07964046 -0.44552806
000260 8a 9b b5 3d 00 e5 9a be 93 c1 1a 3e eb 2d 36 3e
       0.08867557 -0.30252838 0.15112905 0.17790954
000270 94 ce d9 be 4f f6 eb 3d fd 00 33 3e e1 9c d9 be
       -0.4254042 0.11521589 0.17480846 -0.42502502
000280 4c fe 36 3e ec 35 b2 3d 01 3c 41 be 3f 33 71 bb
       0.17870444 0.08701691 -0.18870546 -0.0036804227
000290 ae 8d e2 bd d1 6b 9f be 24 36 f1 3d cb bf 0d 3d
       -0.110621795 -0.31136945 0.11777905 0.034606736
0002a0 37 8c 47 3d e6 57 18 3e 46 96 6d 3d 68 99 81 3e
       0.048717704 0.1487728 0.05800464 0.25312352
0002b0 8a 14 f8 bd 3d b1 0f 3e f4 16 a6 be a9 51 6b bd
       -0.121132925 0.14032455 -0.32439387 -0.057450924
0002c0 ff 7d e2 be 3d 15 d9 3e 7c 42 cd 3a c6 d5 c2 be
       -0.44236752 0.42399016 0.0015660073 -0.3805372
0002d0 c5 31 c3 be d5 ed 06 bf 7d 46 3c bf 51 2a b5 3e
       -0.3812391 -0.5270665 -0.73545057 0.35383847
0002e0 85 f9 15 be 32 52 bc be 08 82 48 3f 2b 5a aa 3d
       -0.14645965 -0.3678146 0.7832341 0.083179794
0002f0 70 12 04 bf 9a a2 f9 be d6 78 5b be ee 25 0b bf
       -0.51590633 -0.48756868 -0.21432814 -0.5435475
000300 12 6d 38 bf d6 a5 1d be c7 c9 3c bf 41 fe 96 bf
       -0.7204143 -0.15395293 -0.7374539 -1.1796342
000310 26 01 0e bf 75 c0 52 bf 63 4a 51 3e 6b 2a 91 3e
       -0.554705 -0.82324916 0.20438533 0.28352675
000320 ef 64 cf 3d aa 6d cc 3d 46 5b 0f 3e 78 48 c5 be
       0.101266734 0.09981854 0.13999662 -0.38531852
000330 bd 77 f5 be 56 cb 91 bb 9f 60 08 3f 9f 16 b0 be
       -0.47942916 -0.0044492884 0.5327243 -0.3439226
000340 f7 f6 22 bf d8 9d 32 bf 1a 24 45 3e d7 87 28 be
       -0.6365809 -0.697721 0.19252053 -0.16458069
000350 0f 0d c4 be f9 4a 3d 3f c7 78 95 3e b8 09 0c be
       -0.38291213 0.73942524 0.29193708 -0.13675582
000360 fb 20 3a be cd a5 65 be c4 28 8b 3e 79 9c b2 3e
       -0.18176644 -0.22426529 0.2717954 0.34885004
000370 72 ef 09 be 0c c1 05 3e b7 83 21 be 59 c0 ad bd
       -0.13470247 0.13061923 -0.15772901 -0.08483953
000380 78 1c 79 3e 17 e7 29 3e ce d2 ef 3d 83 17 5e 3e
       0.24327266 0.1659206 0.1171013 0.21688657
000390 4d 9b 96 be 5b 8d ca 3d db 2b 25 be 25 5e 56 be
       -0.2941536 0.09890243 -0.16130011 -0.20934351
0003a0 21 03 18 3e 87 09 99 be ad 54 b2 bd 25 da 83 3d
       0.14844944 -0.2989008 -0.08707557 0.06438092
0003b0 0e b4 92 3d 3d e9 1f 3e 98 7d b5 bd ca 11 38 3c
       0.07163249 0.15616317 -0.08861846 0.01123471
0003c0 60 64 e9 3e c6 f1 3e 3e a7 6a 4b 3e b5 aa ae bd
       0.45584393 0.18646917 0.19864903 -0.085286535
0003d0 7b 62 00 be e6 70 8a bc 5f 90 e3 3d d0 09 ad bb
       -0.12537567 -0.016899537 0.11111521 -0.0052807108
0003e0 80 1e 61 bd b1 47 84 3d 35 3e 3a 3d bc f9 82 3e
       -0.054960728 0.064589866 0.04546948 0.25581157
0003f0 c8 6d c9 bd 5b f6 92 be 9b 28 b0 bf 07 87 0c bc
       -0.09835392 -0.2870358 -1.3762392 -0.008577115

module.refine_spn.0.6.weight f4 [24, 16, 3, 3]
000000 30 46 3f 3e d4 42 91 be 91 a0 94 be fb 28 97 3e
       0.18679118 -0.28371298 -0.29028752 0.29523453
000010 a2 8a 00 3f 8f 1f 6b bd 0b 1d 04 be 19 d0 23 3e
       0.50211537 -0.057403143 -0.12901704 0.15997352
000020 d0 b8 49 bd d0 b7 7e 3d 77 bf 1e 3e a2 c2 9a 3e
       -0.049248517 0.062187016 0.15502726 0.30226618
000030 56 c5 0c 3e f4 ae ae 3e 48 77 03 3f a8 bb 0b be
       0.13747153 0.34117854 0.51353884 -0.13645804
000040 53 8a d8 3d d8 d1 d6 3e 3d 55 51 3e 07 e4 77 3e
       0.10573258 0.41956973 0.20442672 0.2420808
000050 08 92 e6 3d 65 25 43 be c0 aa 79 be 7c ba 7b be
       0.11258322 -0.19057234 -0.24381542 -0.24582857
000060 2d 6f 0c 3f 67 10 0b 3f 1d 9c 65 3f 32 27 2d 3e
       0.5485714 0.54321903 0.89691335 0.16909483
000070 f7 5e c6 3e f0 21 35 be 37 d4 88 3e fa d5 6c 3e
       0.38744327 -0.17688727 0.26724407 0.231285
000080 c5 ac 24 3e 0b 8c b3 3d 88 29 84 bd 8e fa ae 3b
       0.16081531 0.087669455 -0.06453234 0.005339927
000090 bb f4 89 be 95 07 5b bd 60 5e c6 bd d8 d2 b8 3d
       -0.26944527 -0.053474028 -0.09685969 0.0902459
0000a0 99 92 32 3d cf 92 2f be 9e 55 36 be 0f ec ba bc
       0.043596838 -0.17145847 -0.17806098 -0.02281764
0000b0 7b 63 22 3d fd d4 32 be 8a c4 bb bd 81 de d1 bc
       0.039645653 -0.17464061 -0.09168346 -0.025618793
0000c0 29 b1 14 be 3f 1c 58 3e e3 4f c9 bc 62 9e 9e 3d
       -0.14520706 0.21104525 -0.024574226 0.07745053
0000d0 41 08 28 3e a3 a4 82 bd ca 94 f0 3e f5 74 d1 3e
       0.16409399 -0.06379058 0.46988517 0.40909544
0000e0 4f c6 a2 3d bc cb c6 3d 83 7a 41 be 2e fc 59 3e
       0.079479806 0.09706828 -0.18894391 0.21287605
0000f0 45 9a 5c 3e 9c 70 e4 3d 93 15 b4 3e f6 c8 61 3d
       0.21543224 0.11154291 0.3517271 0.055123292
000100 bf dd 5f bd 9f 0a cb bc 24 24 97 bd 3e ca 8a bd
       -0.054654833 -0.024785338 -0.0737994 -0.06776856
000110 84 d9 0c be c7 4f b5 3e 6b e4 eb 3c 6a 37 91 3d
       -0.1375485 0.35412428 0.028795442 0.070906475
000120 55 2f dd 3f f4 47 9a 3e 8a 8d 0c bf 97 23 85 3f
       1.728007 0.3013302 -0.5490347 1.0401486
000130 36 a3 4b 3f 0d 2b e1 3c 06 50 9b 3e 8e 1e d4 be
       0.79545915 0.027486349 0.3033449 -0.4142956
000140 2b 25 b4 be 4a d2 b8 3d 24 10 76 bd f3 88 a8 3d
       -0.35184607 0.090244845 -0.060073987 0.08229246
000150 29 e9 89 3e da de 20 bc fd 9e 84 bd 13 c0 9d 3a
       0.269357 -0.009818757 -0.06475637 0.0012035392
000160 70 35 f2 3c b2 59 12 3d 4b 20 f2 bc aa ea a6 bd
       0.029566497 0.03573007 -0.029556414 -0.08150227
000170 9e a8 fd 3d ed b1 56 3e 09 f2 fb 3d 5f 99 90 bd
       0.12385677 0.20966311 0.12302024 -0.07060503
000180 24 85 ed 3d db 6b 91 3d bf 71 ae bd b0 17 3a 3d
       0.1159766 0.0710065 -0.08517789 0.045432746
000190 a9 ce 6b 3e c8 ac 98 3c d3 a9 d1 bd fc 50 7b 3d
       0.23028053 0.018637076 -0.102374695 0.06135653
0001a0 85 60 70 be b6 61 9e 3b b2 49 20 3e 17 53 a3 bd
       -0.2347432 0.0048334254 0.15653113 -0.079748325
0001b0 3c 95 ae 3e 35 51 56 3f c2 29 ed 3d d9 55 41 3e
       0.34098232 0.8371766 0.1158023 0.18880405
0001c0 7b 1f f6 3e 03 3b f4 be f9 fe 5a 3e 3d 53 5f 3e
       0.48070893 -0.47701272 0.21386327 0.21809097
0001d0 63 88 c9 be ce 28 5f 3e c5 3a b5 bc 87 6e ff 3d
       -0.39361867 0.2179291 -0.02212275 0.12472253
0001e0 7d 81 99 bd 98 d1 e0 3d b5 22 3d 3e e5 04 1d be
       -0.07495401 0.10977477 0.18470271 -0.15333898
0001f0 67 d3 bd 3c 9e 2a 39 3e d6 13 22 3f 37 f0 c3 3e
       0.023172094 0.18082663 0.6331152 0.38269207
000200 a0 ef 08 3e ec 3b 1e 3e 0a 3b e8 3d af ee bb 3d
       0.1337266 0.15452546 0.11339386 0.09176385
000210 bb ff 3b 3c a0 60 47 3e 71 e4 bc bd 20 5a fe bd
       0.011474545 0.19470453 -0.09223259 -0.12419534
000220 f2 19 9b 3e 86 24 3f 3d 3e c3 d0 be 05 56 d8 3e
       0.30293232 0.04666569 -0.40773958 0.42253128
000230 8e 78 80 3e 19 75 45 be d2 30 ce 3d 47 d5 ca 3d
       0.25091976 -0.1928295 0.100679055 0.09903961
000240 9e 1a 2f bd 04 1f 05 bd d3 09 b5 bd d1 37 27 be
       -0.042749994 -0.032500282 -0.088397644 -0.16329886
000250 11 90 8d be c6 93 2f bd ac c5 9a 3d 94 d1 8f be
       -0.27648976 -0.042865537 0.07557234 -0.28089583
000260 4b 18 71 3e f1 29 f4 3c e0 5b e1 3c 95 20 6d 3d
       0.23544423 0.029805155 0.02750963 0.0578924
000270 eb 78 00 3e 84 a1 79 bd 59 50 c5 3d 21 f1 77 be
       0.12546127 -0.06094505 0.09634466 -0.24213077
000280 63 ba 8a 3e 34 8a d8 bd 40 d4 dd bc 02 48 af 3d
       0.27095327 -0.10573235 -0.027078748 0.08558656
000290 b8 d3 18 3e d3 c2 88 be 46 9c 20 be 77 f4 5d be
       0.14924514 -0.2671114 -0.15684614 -0.21675287
0002a0 c8 eb da be 6d 5b 5f be 9d dc 76 be fa ac bf 3d
       -0.42758012 -0.2181222 -0.24107595 0.093591645
0002b0 3b 68 1e bd 79 6a b1 3d d0 91 94 3d 38 b0 cb bb
       -0.03867362 0.08662886 0.07254374 -0.0062160753
0002c0 c3 11 89 3e f0 16 9b 3e 9d 19 dc bd 92 1f 9c 3e
       0.26771364 0.30290937 -0.10747073 0.30492836
0002d0 ac 1a b6 3c 30 10 da 3d 02 da 61 3d 8e 2e e2 3d
       0.022229515 0.10647619 0.05513955 0.11044036
0002e0 1e 6d 04 3e 85 4e 0d 3e 2a 73 c4 3e 09 e8 c8 3e
       0.1293225 0.13799484 0.38369113 0.3923953
0002f0 e7 ec 68 3e 83 fe 7e 3d ce 5d 35 b9 3d 03 30 bd
       0.22746621 0.06225444 -0.0001729645 -0.04297184
000300 01 ce 93 3d 57 0f 27 3e 8f fd fd 3d b3 21 64 3e
       0.072170265 0.16314445 0.12401878 0.2227848
000310 8f c0 bb 3e ef 89 8f 3e 91 b3 a9 bd 88 cd 45 3d
       0.36670348 0.28034922 -0.08286203 0.048291713
000320 fa 6b 49 3d 53 5e f4 3d 58 3c 6d 3d ab 21 d4 bd
       0.04917524 0.119320534 0.057918876 -0.10357984
000330 71 0a f9 bd 6c ef 80 be 51 75 84 3e ac 76 02 be
       -0.12160195 -0.25182664 0.25870755 -0.12740582
000340 81 8e 56 3e ce 0c 01 3d cf 6d 7a bd b2 bf f8 3d
       0.20952798 0.031506352 -0.061139878 0.12145938
000350 0d 23 eb 3b 32 15 0f be 60 54 6d 3f e4 f5 6b 3e
       0.0071758092 -0.13972929 0.9270687 0.23043019
000360 1f a7 28 be 62 09 1b bd 72 f4 ad be ff fc 03 3f
       -0.16470002 -0.037850745 -0.3397556 0.51557916
000370 2e 5f 51 3c 43 a7 47 be 90 54 dc 3e 84 de 99 3e
       0.01277904 -0.19497399 0.43033266 0.30052578
000380 44 3a 3b bd 01 fc 4c 3b 54 51 16 3d 52 9b 22 bc
       -0.045709863 0.0031278136 0.036698654 -0.009924727
000390 e1 41 d6 3d f2 6b 8d 3d 9d 03 ad 3d 00 8c ce 3e
       0.10461784 0.069053546 0.08447955 0.40341187
0003a0 25 34 66 3e 0b 72 c4 3e ce ee c0 bd d1 4d 0f 3d
       0.22480829 0.38368258 -0.094205484 0.03498632
0003b0 e9 f5 05 3c 64 97 c7 3c e9 6d 3d 3d d5 be 2d bd
       0.008176305 0.02436418 0.046247397 -0.04241832
0003c0 8d 26 93 3d 1e f4 26 bd 31 5e 40 3d d8 1c dc bd
       0.07185087 -0.040760152 0.046964828 -0.10747689
0003d0 e0 5e cd bb f7 c8 1f bc 3d 92 38 3e f6 34 03 3e
       -0.0062674135 -0.009752504 0.18024535 0.12813172
0003e0 c5 b0 28 3e 88 c5 3e 3e 74 ba fc bc f0 76 eb 3d
       0.16473682 0.1863004 -0.030850627 0.11497295
0003f0 6b 03 0d bd ad c3 70 bd 02 f2 d9 bd dd 2b 05 be
       -0.034427088 -0.05878036 -0.106418625 -0.13005014

module.refine_spn.1.weight f4 [8, 1, 3, 3]
000000 9b a0 08 be 4d 5b b5 bb 88 1a 49 bd 0f 26 55 bd
       -0.13342516 -0.0055345655 -0.049097568 -0.05203825
000010 bf 84 c7 bd fb f9 d1 bd a9 41 72 3e 73 d1 49 be
       -0.09742116 -0.10252758 0.2365786 -0.19708805
000020 31 b4 4f 3d 11 9b 14 be 76 4b f7 3b 5d 71 00 bd
       0.050708953 -0.14512278 0.0075468374 -0.03135811
000030 d0 76 47 3e 62 e9 be be 85 1a 7d 3d a2 16 2b 3e
       0.19478917 -0.37287432 0.06179287 0.16707852
000040 9b ff 0a 3e 7d f9 1a 3d 81 ad fd bd e1 ea 9f bd
       0.13574068 0.037835587 -0.12386609 -0.078084715
000050 d4 00 0a 3e 6a 0f da bd 82 6d c0 bd f8 a7 bd 3d
       0.13476878 -0.10647471 -0.09395887 0.09260553
000060 64 62 1e 3d 85 50 4f 3b 7e 0d 81 3e e4 8f d0 bc
       0.03866805 0.0031633687 0.25205606 -0.025459237
000070 e8 15 16 3d 13 f8 e2 3d 6a 42 78 bd 91 6c 82 3e
       0.036641985 0.11082473 -0.060610212 0.25473455
000080 d8 a8 e6 3d 42 7d 3d 3d a7 d2 73 3e 88 87 8b be
       0.11262673 0.046262033 0.23810826 -0.2725184
000090 cd 9b 4d bd ac 3f 1b be 38 ce 51 be 71 f9 55 be
       -0.05019741 -0.15161008 -0.20488822 -0.20895936
0000a0 d6 20 51 3e a8 aa 68 be 54 60 2f 3e 02 ac 12 3d
       0.20422682 -0.2272135 0.1712659 0.03580857
0000b0 78 83 6a be f0 4e 73 be 96 e7 13 be 9d 40 75 be
       -0.22901714 -0.23760581 -0.14443812 -0.2395043
0000c0 f8 b6 09 be 18 a1 19 3e c0 7d 16 3c 7c c1 7c 3e
       -0.13448703 0.15002859 0.009185255 0.24683183
0000d0 6e b5 8e 3e ae 36 50 be 43 a7 fe 3d bc 5a 50 3d
       0.27872795 -0.20333359 0.124342464 0.05086778
0000e0 b2 52 1b 3e 2b 80 71 3b 1a 75 52 3d 56 7b b5 bd
       0.15168265 0.0036850076 0.051381208 -0.08861415
0000f0 ac 25 5d be 62 1c 36 be 83 b2 b2 bd 61 af b3 bd
       -0.21596402 -0.17784265 -0.08725455 -0.08773685
000100 d4 e8 43 be 0a 6d 47 3e b7 fe 00 3e e7 1a cb bd
       -0.19131786 0.19475189 0.12597166 -0.099172406
000110 8c 38 0f 3e 13 d3 42 bd 49 c1 af bd f6 e7 0f 3e
       0.13986415 -0.047564577 -0.08581788 0.1405333

module.refine_spn.2.weight f4 [1, 8, 3, 3]
000000 60 c5 4e be 54 81 22 bf 02 63 39 3f 27 31 8e 3b
       -0.2019248 -0.6347859 0.724167 0.0043393555
000010 d8 91 89 be 75 8f 88 3d b6 df 43 3e 10 33 fb be
       -0.26869082 0.06667987 0.19128308 -0.49062395
000020 c3 69 1d 3f bc 2e 7f be ec e8 3f 3e 77 97 36 3f
       0.61489505 -0.24920171 0.18741196 0.71324867
000030 d6 43 8f 3e 53 4c 39 bf 04 2b 4b bd 2f e9 ee 3e
       0.27981442 -0.72382087 -0.04960157 0.4666228
000040 8a ae 2d bf bd 85 c7 3d 74 cc 0e bf 24 9c ca be
       -0.6784445 0.097423054 -0.5578072 -0.3957225
000050 58 8c d8 3e 96 77 7f be ca 95 e4 be d6 36 e9 3e
       0.42294574 -0.24947962 -0.4464553 0.4554965
000060 eb 05 44 3e af 1a a0 3e f5 dd 9f 3e 79 c0 bb be
       0.19142883 0.31270358 0.31224027 -0.36670282
000070 9a f1 71 3e 02 0a c5 bd 11 1b 7b bd a2 d2 46 3f
       0.2362732 -0.096210495 -0.06130511 0.7766515
000080 92 0b 4f bd 33 00 46 3f e7 ea 4e bf 22 3f 85 3e
       -0.050548144 0.77344054 -0.8082718 0.2602473
000090 3c f6 8f 3e f0 da 2f be 2d e4 7d 3d 79 ce d3 3e
       0.2811755 -0.17173362 0.061985184 0.41368464
0000a0 2e 59 02 bf 2a 1f 1a 3e ed 01 7d bf 16 73 a3 be
       -0.5091733 0.1505095 -0.98831064 -0.3192374
0000b0 5c e8 a2 be 4c 77 a3 be 24 11 23 be 60 84 b2 be
       -0.318179 -0.31926954 -0.15924507 -0.3486662
0000c0 be ec 11 3f f4 4b 18 be f2 db 37 3e 92 04 4c 3f
       0.57001865 -0.14872724 0.17954996 0.79694474
0000d0 60 d4 3c be 2e 49 00 3e 9a 85 a7 3e bf ec d7 be
       -0.1844039 0.12527916 0.32719117 -0.4217281
0000e0 17 5f ca be 88 91 cb be 91 31 c9 3e 51 94 c5 bd
       -0.39525673 -0.3975947 0.3929563 -0.0964743
0000f0 17 b8 8e 3b 33 12 62 3f c2 b9 2b 3e 67 0f 28 be
       0.0043554413 0.8830902 0.1677008 -0.16412126
000100 cf 68 3f 3f 0c 8e 3e 3e c3 dd ca 3e 52 f0 1b be
       0.747693 0.18608874 0.39622316 -0.15228394
000110 44 39 db be 77 7b 47 be bf 9c 51 be d1 cf fc bd
       -0.42817128 -0.19480692 -0.2046995 -0.12344325

module.feature_extraction.block0.0.0.weight f4 [1, 3, 3, 3]
000000 92 a1 27 be 27 28 11 3e 85 6f bc 3e 42 74 80 3e
       -0.16370228 0.14175473 0.36803833 0.25088698
000010 5b c2 bb 3e e5 7e 61 3e 27 e7 13 3f fc e1 1a 3f
       0.3667172 0.22021063 0.57774585 0.60501075
000020 7a 6c be 3d 54 26 c6 3f 85 7c 95 3f 47 e2 48 3e
       0.09298034 1.5480447 1.1678625 0.19617568
000030 3a 40 4d 3e 2c 61 16 3f c8 26 2e 3f 2c d7 80 3e
       0.20044032 0.5874202 0.68027925 0.25164163
000040 31 99 45 3f cf 4f 06 3f b8 69 b4 bd e4 9e 00 3e
       0.77186877 0.5246553 -0.08809227 0.12560612
000050 71 e8 ca 3d 2a db 86 3e 5d 02 f3 3e cc 3d ab 3d
       0.09907616 0.26339084 0.4746274 0.08361396
000060 46 f2 9f 3d 35 34 af bd 3f 45 21 3e
       0.07809882 -0.085548796 0.15749072

module.feature_extraction.block0.0.1.2.weight f4 [1, 1, 3, 3]
000000 bc a9 1d 3f 4b 5b 58 be d9 e3 14 3f 3f 5e 13 3f
       0.6158712 -0.21128576 0.5816017 0.57565683
000010 b6 bc a0 be a3 78 04 3f 56 92 f9 3e b3 7c 23 be
       -0.31393975 0.5174658 0.48744458 -0.15965538
000020 09 eb fa 3e
       0.49007443

module.feature_extraction.block0.1.1.2.weight f4 [2, 1, 3, 3]
000000 8c 19 97 3f 60 2a ef 3d bd cb 61 3d 3c 56 72 be
       1.1804671 0.11678004 0.05512594 -0.23665708
000010 6c d9 49 be 78 d2 b1 bd f9 2a 09 bf 8a 6a b4 be
       -0.19711846 -0.08682722 -0.53581196 -0.35237533
000020 e8 1b c5 3c 03 51 cd bd 89 88 59 3e a1 69 5e be
       0.024061158 -0.100252174 0.2124349 -0.21719982
000030 96 5c 82 bc cb af bc 3f 0b 58 af be 46 83 a8 bd
       -0.015913289 1.4741148 -0.3424686 -0.082281634
000040 7e b9 34 be 51 ca b4 3d
       -0.17648885 0.08827651

module.feature_extraction.block0.1.2.0.weight f4 [2]
000000 95 ed 3d 3f 12 20 04 3f
       0.74190646 0.51611435

module.feature_extraction.block0.1.2.0.bias f4 [2]
000000 da 95 d1 3d e5 59 73 3f
       0.1023366 0.95059043

module.feature_extraction.block0.1.2.0.running_mean f4 [2]
000000 30 7a f7 bc 3e 14 20 3f
       -0.03020963 0.6253089

module.feature_extraction.block0.1.2.0.running_var f4 [2]
000000 6e 25 92 3d 6e 6e d2 3d
       0.071360454 0.10274969

module.feature_extraction.block0.1.2.2.weight f4 [2, 2, 3, 3]
000000 b9 79 4a 3e e7 d2 a4 bd fa 24 2d 3e dd 39 16 be
       0.19772996 -0.08048039 0.16908637 -0.1467051
000010 a7 be 82 be 1a 51 d8 bd 75 3f 17 bf af 4c 36 bf
       -0.2553608 -0.10562344 -0.590812 -0.7121076
000020 1f a9 87 be 67 ba 0f 3e 8f a9 8e be f8 67 8e be
       -0.26496217 0.1403595 -0.27863738 -0.27813697
000030 12 6b 83 bf 65 13 dd bf a5 15 dc be 9a 95 f3 bd
       -1.026705 -1.7271544 -0.42985263 -0.118937686
000040 3b cf 2f be ca 60 c8 bb 0f d5 87 bd d8 94 b0 3c
       -0.17168896 -0.006115054 -0.066324346 0.02155535
000050 1e ca a8 bd 1f 2b cf 3d 2b d8 bb 3e d0 fe ca 3d
       -0.08241676 0.101156466 0.3668836 0.09911883
000060 c2 7f b3 3e e6 a1 5c 3f 25 cc d3 3e dc cf 3a be
       0.3505841 0.8618454 0.41366687 -0.18243355
000070 3d 99 a7 bd 0b 17 82 3d b5 98 8f 3f 56 eb 1b 3f
       -0.08183525 0.06352051 1.1218477 0.6090597
000080 2e 23 85 3c 04 66 04 bf 95 89 98 be b1 33 74 bb
       0.016252127 -0.51718163 -0.29792467 -0.0037262256

module.feature_extraction.blocks.0.1.0.weight f4 [2]
000000 27 c7 d4 3e 9c b5 fa 3e
       0.4155819 0.48966682

module.feature_extraction.blocks.0.1.0.bias f4 [2]
000000 94 47 87 3f 59 8c 63 3f
       1.0568719 0.8888603

module.feature_extraction.blocks.0.1.0.running_mean f4 [2]
000000 c8 4e 6c c0 12 5e cc 3f
       -3.6923084 1.5966208

module.feature_extraction.blocks.0.1.0.running_var f4 [2]
000000 8b cd 71 40 16 90 cd 3f
       3.7781703 1.6059597

module.feature_extraction.blocks.0.1.2.weight f4 [4, 2, 3, 3]
000000 3e f6 02 3e ce d0 2c 3e d1 a7 87 3d 24 ed ab 3e
       0.12789246 0.16876528 0.06623805 0.3357936
000010 4f 69 3f 3e 97 59 56 3e af 32 8e be 1f 59 10 3f
       0.18692516 0.20932613 -0.27773044 0.5638599
000020 ca 74 83 be 0a 39 2a be 89 6c 95 bc 88 df d6 bc
       -0.2567504 -0.16623321 -0.01824023 -0.026229635
000030 bf 45 96 3e 85 69 fe 3f 37 dc 03 3d e3 c4 11 bd
       0.29350087 1.9875952 0.032192435 -0.035588156
000040 d1 34 36 3e ff 00 e9 3d 31 03 a1 3e 8d 95 99 be
       0.17793585 0.11377143 0.31447747 -0.2999691
000050 ec c2 61 bd 63 6a 97 bf d5 97 07 c0 bc e9 ff 3d
       -0.055117533 -1.1829342 -2.118642 0.12495753
000060 ea c7 b5 3e 62 66 09 be 35 ad 03 be 88 88 95 bc
       0.35504085 -0.13417962 -0.12859042 -0.01825358
000070 6d 03 af 3d 2e 00 93 bd 2f 77 66 bc 51 c9 1e 3e
       0.08545575 -0.07177769 -0.0140665015 0.15506484
000080 0e ad 1e bd 75 4d 70 3d 5d 08 97 bc 84 69 0e bd
       -0.038739257 0.05866762 -0.018436605 -0.034768596
000090 11 18 ec 3c 45 13 27 be bc 6a 94 3d 5b 73 9c 3e
       0.02882007 -0.16315944 0.072469205 0.3055676
0000a0 07 df a8 3e ab 42 6e bd fe 79 b6 be 01 c5 22 bf
       0.32982656 -0.05816905 -0.35639948 -0.63581854
0000b0 a5 6e 1c 3c d1 b4 9d 3c 41 78 49 bd 24 f5 3f 3c
       0.009547864 0.019251259 -0.04918695 0.011716161
0000c0 12 21 60 be 50 72 d6 bf 6b 4f 36 bd b6 40 2d bd
       -0.21887615 -1.6753635 -0.044509333 -0.04229804
0000d0 64 a7 99 bd ac 96 b2 3c d4 28 1d bd 47 54 02 be
       -0.0750263 0.021800362 -0.038369015 -0.12727462
0000e0 54 5e 54 3e 75 33 24 be 06 64 28 bf 08 6e 1f bf
       0.20739108 -0.16035254 -0.65777624 -0.6227727
0000f0 f8 87 05 3e 2f 50 67 3f 41 6c b8 3e 0d 38 c9 bb
       0.13040149 0.90356725 0.3602009 -0.006140715
000100 e7 fc 6b bd d2 d1 64 bd 41 c1 08 be b1 07 0a 3f
       -0.057614233 -0.055864163 -0.1335497 0.53917986
000110 62 3a c9 3e c8 99 83 3c 28 df 20 be 4e 28 64 be
       0.39302355 0.01606454 -0.15710127 -0.22281

module.feature_extraction.blocks.0.2.0.weight f4 [4]
000000 fc f0 f0 3e be 39 35 3f 7a 09 ba 3f 18 8c 09 3f
       0.47058856 0.7079123 1.4534142 0.5372939

module.feature_extraction.blocks.0.2.0.bias f4 [4]
000000 ec b8 c0 3e e7 e1 ae 3f 7e 52 db be 0a 77 44 3e
       0.37641084 1.366269 -0.42836374 0.19186035

module.feature_extraction.blocks.0.2.0.running_mean f4 [4]
000000 7c 8d 51 40 0a 51 4d c0 e2 1b 12 c0 35 c9 81 3e
       3.2742605 -3.2080712 -2.2829518 0.2534882

module.feature_extraction.blocks.0.2.0.running_var f4 [4]
000000 bd cc 77 3f 22 ab d4 3f 18 36 7e 3f 3c f7 ca 3e
       0.9679678 1.6614726 0.9930129 0.3964175

module.feature_extraction.blocks.0.2.2.weight f4 [4, 4, 3, 3]
000000 79 f9 cc 3d 44 43 ab be 91 e6 77 3e b5 58 4e be
       0.10008521 -0.33449757 0.24209048 -0.20151027
000010 1c 02 01 bf ad 2a 66 be b2 3c a7 3d 9f cb 66 bd
       -0.50393844 -0.22477217 0.081658736 -0.056346532
000020 2c 97 9c 3d a3 38 15 3e 82 21 a8 be d7 18 e6 be
       0.07646021 0.14572386 -0.32838064 -0.44940826
000030 e9 49 9b bd 52 0e 08 3f 04 db d9 3e 9c 27 48 3d
       -0.075824566 0.5314685 0.42549908 0.0488659
000040 07 86 06 3e 17 40 fe 3a 4f 01 46 3f 56 7b 9f 3f
       0.13137065 0.0019397762 0.77345747 1.2459514
000050 8f 4a 73 3f c8 a5 ae bd e5 d0 88 be 2c d5 13 be
       0.9503564 -0.08527714 -0.26721874 -0.14436787
000060 ea d9 a3 bc 0e 3d 89 bc b4 5f f5 38 36 2a 85 bf
       -0.02000137 -0.016752746 0.000117003365 -1.0403507
000070 75 c4 bb bf 06 4f db be 63 ab 08 3e ab 82 2b be
       -1.4669329 -0.42833728 0.13346629 -0.16749065
000080 a9 58 02 3d a6 65 05 3e 38 41 86 bc ff a3 64 bd
       0.031822834 0.13027057 -0.01638852 -0.05582046
000090 3b 8f cf be b1 fb 4c bf 17 ca c1 be dc 00 68 3d
       -0.40538964 -0.8007155 -0.37849495 0.056641445
0000a0 86 64 bd be 1b e3 80 be 3a a5 07 3c 7b b7 95 bd
       -0.36990756 -0.25173268 0.008279139 -0.07310387
0000b0 ed 3c 41 be d4 eb c8 3c 42 90 f4 3d 3a 53 e4 3d
       -0.18870898 0.024526514 0.119415775 0.11148687
0000c0 c8 71 51 bd 6d b5 d9 bf ca b0 89 be f0 30 82 be
       -0.0511339 -1.7008492 -0.26892692 -0.2542796
0000d0 1c 81 90 bf 5a b8 35 be 9c 5a 15 3e 24 16 c9 3e
       -1.1289401 -0.17746106 0.14585346 0.39274704
0000e0 13 dd 46 3e ac 88 e1 3d d4 52 23 3f c2 cf 27 3e
       0.1942027 0.11012396 0.6379826 0.16387847
0000f0 9f 8b c7 bd bd 9c 21 bd 3e 03 84 3c 7b 94 35 be
       -0.097434275 -0.039456118 0.016114827 -0.17732422
000100 aa ee 1f be 00 12 8a 3d 3b 27 9b be 14 31 8f be
       -0.15618387 0.067417145 -0.30303368 -0.2796713
000110 4e bd d4 3c 80 de 3f 3e c0 98 a3 3d f8 38 a9 bc
       0.025969174 0.18737221 0.07988119 -0.020657048
000120 55 96 6d 3d 94 1d d4 3e ce ad 8d 3e 7c 54 f8 be
       0.058004696 0.41428816 0.27671665 -0.48501956
000130 17 38 7b bf 6c cf 9a be fe da c8 ba 33 dd 29 bd
       -0.9813246 -0.30236375 -0.0015324054 -0.041470718
000140 63 a4 85 3d 55 00 13 be 72 2a ad 3e 4b 33 80 be
       0.06525495 -0.14355595 0.33821446 -0.25039133
000150 e9 5f 8c 3e d1 6b d0 3f 29 de 1b 3f cf d1 99 3e
       0.27416924 1.6282903 0.60885864 0.30042884
000160 1b 61 dd 3e 9c 72 98 3d af 3b ab bd 58 a4 0f bf
       0.43238148 0.07443735 -0.08360993 -0.56110144
000170 03 ef 48 bd 3a f9 00 bf f7 52 75 bf 0e 05 37 bf
       -0.049056064 -0.5038029 -0.9582972 -0.7149209
000180 0a 1a bb bc 53 5a 23 be 45 0a cb bd b2 b7 bf bb
       -0.022839565 -0.15952425 -0.09914068 -0.0058507556
000190 7b a7 85 be 62 5d b7 3c 68 18 5d 3e b9 f6 b6 3e
       -0.2610434 0.022383396 0.21591341 0.3573511
0001a0 66 38 d4 3d 2a 4e a2 bc 96 6b 4f bc a2 9c 7a bd
       0.1036232 -0.019812662 -0.012659928 -0.061184533
0001b0 ae af 8a bd c1 92 3b 3f d7 0f 5a be 0c e8 99 3e
       -0.067717895 0.73270804 -0.21295105 0.3005985
0001c0 5e 13 9c 3e 8d a0 90 3e b1 72 fb 3c 6d c3 a1 bd
       0.30483526 0.2824749 0.030694338 -0.07898603
0001d0 46 18 a4 bc 5a a2 d3 bd 3e 82 c1 3e 84 86 ed 3e
       -0.020031106 -0.103337005 0.3779468 0.4639169
0001e0 94 57 a1 3d 07 cc 93 bf 85 a0 47 bf 18 7f 8a bd
       0.07878032 -1.1546639 -0.7797931 -0.067625225
0001f0 50 b6 c2 be 67 f1 4e 3e ee 71 03 bf d5 4b ca bf
       -0.38029718 0.20209275 -0.5134572 -1.5804392
000200 06 5d 1e bf 89 29 ce 3d e0 f0 b5 3e 89 e3 c9 3d
       -0.6186069 0.10066516 0.35535336 0.09857852
000210 19 98 0f 3d 96 35 b0 3c 3d e8 a4 3c 9c 27 d6 3e
       0.03505716 0.021509927 0.020130271 0.41827095
000220 88 c0 11 3f 71 d6 ac bb 26 65 83 be 21 20 85 be
       0.56934404 -0.005274587 -0.25663108 -0.26001075
000230 25 6c d2 bd 14 0c 4d 3d 26 be c1 bd b0 16 1b 3c
       -0.10274533 0.050060347 -0.09460096 0.009465858

module.feature_extraction.blocks.1.1.0.weight f4 [4]
000000 5d af d5 3e ad 35 c1 3e 34 c5 fa 3e 97 5c 07 3f
       0.41735354 0.37736264 0.4897858 0.52875656

module.feature_extraction.blocks.1.1.0.bias f4 [4]
000000 ab 07 3d 3f 2f a1 8a 3f 15 ce 93 3f f1 b1 8a 3f
       0.73839825 1.0830439 1.1547266 1.0835553

module.feature_extraction.blocks.1.1.0.running_mean f4 [4]
000000 ef 96 86 3f 83 0f 93 c0 90 aa 81 40 7a ca 41 bf
       1.0514811 -4.5956435 4.0520706 -0.7569958

module.feature_extraction.blocks.1.1.0.running_var f4 [4]
000000 06 7c d6 3f 41 ff a3 40 99 00 b0 40 fd ba 3f 40
       1.6756599 5.124909 5.500073 2.9957879

module.feature_extraction.blocks.1.1.2.weight f4 [8, 4, 3, 3]
000000 f1 66 a3 bd 88 34 d5 bd 83 4d 29 bd 39 76 b2 bd
       -0.07978619 -0.1041041 -0.041333687 -0.087139554
000010 05 40 81 3f 4b 4d 92 bc 5b 9f b5 3d 6b 14 4f 3d
       1.0097662 -0.017859122 0.08868285 0.05055658
000020 15 f0 13 3d b8 62 e8 3c 74 e2 cd 3e fe 5b 9f bd
       0.036117632 0.028367385 0.40211833 -0.07781218
000030 96 6a 02 3e 09 5d de bf 0c f5 2e 3e f6 06 21 bd
       0.12735972 -1.7372142 0.17085665 -0.03931328
000040 19 c8 51 be 0a b9 85 3d 0a 21 13 be a5 92 39 bf
       -0.20486487 0.06529434 -0.14368072 -0.72489387
000050 06 fe 94 bd f7 29 6e be 6d 66 ab 3f f3 8d 8d be
       -0.072750136 -0.23258196 1.3390633 -0.2764736
000060 44 a0 20 3c e9 1f ad 3c 69 4f e9 bc ed df e6 3a
       0.009803835 0.02113338 -0.028480249 0.0017614343
000070 8e 6b 7b 3e c7 ae 02 3d 70 3e f4 3d 15 3d 05 bf
       0.24552748 0.031904962 0.119259715 -0.5204633
000080 7e 7d e8 3d 8f f0 c0 3b c2 d2 64 3b 2a 6d 2e bd
       0.11352061 0.005888052 0.003491566 -0.042584576
000090 aa 37 1f bd a4 5e db bd 73 66 a4 bd d5 0c f6 3c
       -0.038871445 -0.10711411 -0.08027353 0.030035416
0000a0 c3 41 4b bf 7a 10 77 3c 1d 75 a0 bb 10 00 48 3a
       -0.7939722 0.015079612 -0.0048967735 0.0007629404
0000b0 b0 02 b3 bd fe bb 2a 3d 0e 38 82 3e 1d 98 11 3d
       -0.08740747 0.04168319 0.2543339 0.035545457
0000c0 8b e6 a0 bd ce 9e db 3e 06 e7 11 3e 14 4e 75 bd
       -0.078564726 0.42894596 0.14248285 -0.059888914
0000d0 f6 7d de 3d e2 4d 88 be 57 55 10 be c9 3f 0f be
       0.10863869 -0.2662192 -0.14095055 -0.13989176
0000e0 28 05 83 be 12 d2 65 3e d0 97 00 bf 0a 6a 4e 3d
       -0.2558987 0.22443417 -0.5023165 0.050394095
0000f0 f7 3a bd bc f2 a2 8d 3d 12 02 1a 3e 1a e0 44 3d
       -0.023099406 0.06915845 0.15039852 0.048065282
000100 d4 bd 1c bc 64 ed 25 ba d9 8e 2f 3e e9 6b 1b c0
       -0.009566743 -0.00063296244 0.17144336 -2.4284613
000110 44 b5 2e 3e bd 6a c0 3c d5 58 83 be 95 c7 17 3e
       0.17061335 0.023488397 -0.2565371 0.14822228
000120 85 56 e1 bc 1d 15 aa bd 85 5f c1 bd e8 58 0c 3e
       -0.027507076 -0.08304808 -0.09442047 0.1370579
000130 bd 24 e2 be 5c a9 88 bd 56 64 a9 bd 79 0f b3 bd
       -0.44168654 -0.06672928 -0.08271091 -0.087431855
000140 f0 32 f9 3c 28 39 3e be 97 1e 16 3f 44 43 4c 3e
       0.030419797 -0.18576491 0.58640426 0.19947535
000150 40 03 a9 3e 09 2c f8 bf c7 7c 5d be 13 0a 09 bd
       0.33010292 -1.9388438 -0.2162963 -0.033456873
000160 bf 5a 82 bc c9 7d 98 3d f4 e7 5f 3c 72 4d 13 bf
       -0.015912412 0.074458666 0.013666142 -0.5754005
000170 bc e3 67 be 1d b6 0b be d1 69 82 3f 2e 99 42 3e
       -0.22645468 -0.1364369 1.0188543 0.19003746
000180 76 ca 2b bd f8 a4 b3 b9 4b ed 39 bd f7 c5 a7 bd
       -0.04194113 -0.00034264452 -0.045392316 -0.08192056
000190 7d b2 f0 3c 95 f4 29 3d 87 d4 32 be 39 67 a4 3f
       0.029381985 0.041493017 -0.17463885 1.2844001
0001a0 63 75 77 3e 1a 5e 2a bd 65 94 ea bd 6f 82 e6 bc
       0.24165873 -0.04159365 -0.11454085 -0.028138367
0001b0 f3 39 f0 3c 36 b6 45 bc bb 45 f5 3c 4c d5 20 be
       0.029324507 -0.012067368 0.029940477 -0.15706366
0001c0 38 c1 b0 bf 82 bf 1d be ac 98 8e 3c 88 11 89 3d
       -1.3808966 -0.15405086 0.017406784 0.06692797
0001d0 77 21 6e 3c 91 9e d7 3e 54 f2 d3 be df 83 a8 3d
       0.014534346 0.42113164 -0.4139582 0.082282774
0001e0 fe 73 52 3e 45 a6 5b be 28 c1 60 be 96 38 70 3d
       0.2055206 -0.21450146 -0.21948683 0.058647715
0001f0 00 ba e1 bb 1a f8 df 3d 69 40 39 3d 59 c8 b5 3e
       -0.006888628 0.109359935 0.045227442 0.35504416
000200 90 31 68 3d 8a 01 9c be 21 fc 87 bf 3e 8d 81 bd
       0.05668789 -0.30469924 -1.0623819 -0.06325768
000210 c3 15 3a 3d d8 e4 cd bc 0d f6 41 3d 80 b2 ba bc
       0.04543091 -0.025133535 0.047353793 -0.022790194
000220 6e da d6 be b2 fc 4a 3c 54 61 d8 be 6e ca 8b bf
       -0.41963524 0.012389349 -0.42261755 -1.0921152
000230 db 78 5e be 59 2a 8d 3c 55 75 a1 be d2 8c 40 bd
       -0.2172579 0.017232107 -0.3153483 -0.047009297
000240 36 f8 3a 3d 89 3c 50 bc 44 98 61 bd 75 b2 14 bf
       0.04564687 -0.012709745 -0.055076852 -0.58084804
000250 d9 a7 fc bf 46 84 35 3e 6c ce d3 bd 6e cf a6 bd
       -1.9738723 0.1772624 -0.10342106 -0.08145033
000260 19 5f 43 bd 7e dc 92 ba 6d 01 b1 be 72 5d a5 bd
       -0.047698114 -0.0011204628 -0.345714 -0.08074464
000270 35 0a a2 3e f3 45 c8 bd 78 af d7 3e 63 6a 25 3e
       0.31648412 -0.09778967 0.4212606 0.16153865
000280 8f 46 42 bd 15 cf 44 3b 7d a4 c2 3e 1c 55 4f 3e
       -0.04743057 0.0030030657 0.3801612 0.2024731
000290 a2 db af 3d ab c3 0d bd ab 7a d7 be ae c8 01 be
       0.085868135 -0.03461043 -0.42085776 -0.1267421
0002a0 a7 a6 b3 bd 69 e9 d1 bd 7f 60 ae bd f4 1b ae bd
       -0.08772021 -0.102495976 -0.08514499 -0.085014254
0002b0 14 3e 23 bf 4a cb 95 be f8 19 93 be 7b 8d 9c be
       -0.637666 -0.2925666 -0.2873075 -0.3057669
0002c0 ac cc 7e be a6 52 27 bd d8 53 56 bd bd 40 f7 3d
       -0.24882764 -0.040850304 -0.052326053 0.12072895
0002d0 50 ee 95 3c a6 eb c7 bd 65 dc 9f 3c c2 bd 30 3e
       0.018302113 -0.09761743 0.019514272 0.17259887
0002e0 94 5d 8f bf 80 f4 49 be 5e 88 07 3d 7a 0b c3 3d
       -1.1200433 -0.19722176 0.033089034 0.09523673
0002f0 f5 da 42 bd 7f cb 5c 3d d6 cd bb be 85 71 01 3d
       -0.047572095 0.053905006 -0.36680478 0.0316024
000300 d0 f0 43 be bc 2f 72 3f 6d 7f 43 3e 2b df f7 3d
       -0.19134831 0.94604087 0.19091578 0.12103113
000310 fe 0a a4 bc 6c db db 3d 4d 89 fd 3d 9b 33 61 3d
       -0.020024773 0.10735211 0.12379704 0.054980855
000320 0d e5 89 3e b1 4d 9f 3d 25 13 ef bf ca 27 9d be
       0.26932564 0.0777849 -1.8677717 -0.3069442
000330 2a dd 65 bc 95 00 1c bf 17 b7 c8 bc 25 15 86 bc
       -0.01402978 -0.6093839 -0.024501367 -0.016367504
000340 76 23 84 bd ad 3a 50 bd 70 a1 62 be 7d 7c 4f 3c
       -0.06452076 -0.050837208 -0.22131896 0.012663958
000350 1f 49 1e be 95 fa 67 3c e5 66 9d be b4 1b 0e 3d
       -0.15457581 0.0141588645 -0.30742565 0.03469439
000360 17 cd 8a bd d8 cc 77 be 42 e3 f6 3c e7 e8 83 3e
       -0.06777399 -0.24199235 0.030137662 0.25763628
000370 41 d3 7b 3d 38 e3 a9 3d 5a cb af bd a2 29 de bc
       0.061480764 0.08295292 -0.08583708 -0.027119461
000380 26 e3 18 3b 9e b3 ec bd e4 d3 39 be e0 59 ef bd
       0.002332875 -0.11557697 -0.18147236 -0.11687064
000390 43 33 ce 3d 33 28 92 3f 6b b2 39 3d fd 35 0c be
       0.10068371 1.1418518 0.04533617 -0.1369247
0003a0 ff bb 51 3e ff ec fc bd 72 45 32 be 5f 1b 70 bf
       0.20481871 -0.12349891 -0.17409304 -0.93791765
0003b0 a6 60 43 bd 3a b3 a0 3d c4 e4 4e bf 41 f3 8d 3e
       -0.047699593 0.07846685 -0.8081782 0.2772465
0003c0 17 48 75 3e aa ed 65 be e9 a9 3f 3e f9 c3 83 bc
       0.23953281 -0.22453943 0.1871716 -0.016084658
0003d0 c7 d8 38 3e 4a ce 92 3d e9 d7 ed bd a1 f7 f8 3f
       0.18051444 0.07168253 -0.11613447 1.945057
0003e0 4b c5 5a be c0 06 87 bc 86 f2 a2 bd ab af 5a bd
       -0.21364324 -0.01648271 -0.07956414 -0.053390186
0003f0 12 3b 06 bd 07 57 86 3e 55 e3 b5 3d 36 2f 4f bd
       -0.032771178 0.26238272 0.08881251 -0.050582133

module.feature_extraction.blocks.1.2.0.weight f4 [8]
000000 3a d1 49 3f c1 84 15 3f ad 83 2b 3f 30 f9 47 3f
       0.7883488 0.5840569 0.66997796 0.78114605
000010 56 4b b7 3e 15 4a 72 3f ad ed 48 3f 98 a6 07 3f
       0.35799664 0.9464429 0.78487664 0.52988577

module.feature_extraction.blocks.1.2.0.bias f4 [8]
000000 2c 54 bc 3f 32 2e 1c 3f c0 19 b8 3f d4 8b 83 bf
       1.4713187 0.6100799 1.4382858 -1.0277047
000010 dd 2b 03 be 1c 26 1b bf 49 9a 5d 3f 5d d0 4d 3f
       -0.12809701 -0.60605025 0.86563545 0.8039606

module.feature_extraction.blocks.1.2.0.running_mean f4 [8]
000000 a0 06 5d bf 78 f4 45 c0 8f ba 9d be 38 a7 9c c0
       -0.86338234 -3.0930462 -0.30806395 -4.8954124
000010 3e 25 6e c0 43 d6 53 c0 9c 6e 9b 3f da a4 0d 40
       -3.721023 -3.3099525 1.214313 2.2131867

module.feature_extraction.blocks.1.2.0.running_var f4 [8]
000000 c5 c4 77 3f f5 2d 9f 3f f1 70 29 3f 9c 36 88 3f
       0.9678462 1.24359 0.6618796 1.0641665
000010 82 4a c0 3f c2 8c 18 40 e9 2e 21 40 19 63 d2 3e
       1.5022738 2.3835912 2.5184882 0.4109123
